last_w_0.npy (npy, 8040 bytes, 1 tensors)

array f8 [989]
000000 9a 0f 2d ff 9b ba 75 bf 65 31 68 e6 37 ec 61 3f
       -0.005304917681147625 0.002187833003750738
000010 1c 90 ab 31 84 2a 81 bf 74 05 dd d6 3c e0 64 3f
       -0.008381874814809058 0.0025483310954831865
000020 82 88 54 90 80 be 52 bf 58 84 1b d9 75 a2 60 bf
       -0.0011440520768890854 -0.002030592128776248
000030 29 48 eb 66 df d3 99 bf 44 85 97 ef 3c 57 6d 3f
       -0.02522229257267142 0.003581637397232969
000040 7a 9b 9c ff c9 10 69 bf c1 13 50 5c ba c1 63 bf
       -0.003059763458526485 -0.0024117126326949905
000050 bc fc 46 fa 85 a3 87 bf 56 13 a3 b2 31 9e 66 3f
       -0.011542364788395758 0.0027609797153637467
000060 0b 17 23 38 b4 3e 68 3f 2d f7 af 0c c1 5b 84 3f
       0.0029595870883864 0.009940632056892074
000070 a0 37 bb 8f 92 0a 82 bf e2 98 1d 4b 59 c8 88 bf
       -0.008809227954227172 -0.012100885014387722
000080 03 ad 37 b9 91 c8 81 3f 40 9f c7 4d b9 3f 5a bf
       0.008683336701287297 -0.0016021070106208707
000090 ad a2 7b 55 a1 1b 42 bf 5c d9 96 cf 6c fa 39 bf
       -0.0005526101840277097 -0.00039639622226718906
0000a0 18 22 7a a4 69 3c 82 bf 6a 1c b1 d9 bf 15 50 3f
       -0.008904290515844557 0.000981747964731184
0000b0 5f 63 22 ff f1 1a 52 bf 4e 31 70 ce 32 93 5d 3f
       -0.001105057072470404 0.0018051143795246474
0000c0 cf d4 fb 73 61 1b 83 3f f3 45 6b 21 ef cd 60 3f
       0.009329568244974244 0.002051322032777797
0000d0 c0 4e 5b ee 2c 41 80 bf 63 ca 69 b8 90 c2 59 3f
       -0.0079368124237712 0.0015722668919379227
0000e0 a5 83 b5 a7 30 45 89 3f c5 0d a1 62 ad b0 6d 3f
       0.01233900081450818 0.003624285357575837
0000f0 84 b7 c4 95 26 54 54 3f 6c 83 24 11 13 fa 83 3f
       0.0012407662207567236 0.009754322968150674
000100 a5 0d f7 9b 2c 37 80 3f f3 0c 9f 94 2a 77 65 bf
       0.007917736539531381 -0.002620299496784656
000110 f0 94 45 6e c9 eb 6f bf f4 d2 98 c9 56 f0 62 bf
       -0.0038966116136857007 -0.0023118681972625846
000120 06 19 ca c5 f7 a7 70 3f 86 45 56 c9 7f 13 6d 3f
       0.004066436635758791 0.003549336989359278
000130 7d 58 f7 59 78 fa 54 3f bf e4 b7 54 d7 f4 67 3f
       0.0012804198557794515 0.0029243665392156555
000140 3d 59 fb 79 24 63 81 3f 1e a1 2a de db 15 74 bf
       0.008489880535688438 -0.004903658732168274
000150 27 d8 49 ec ac 7c 33 3f b7 db d4 83 32 05 64 3f
       0.00029734822991345434 0.0024438845272487203
000160 5b c1 bb 5c b0 79 93 3f ef 96 ca 9e 7e a0 62 3f
       0.019018893871306158 0.0022737954189605484
000170 ab ea e2 aa f7 a7 65 bf 24 2e 2b 33 c0 59 7e 3f
       -0.002643569684633936 0.00740981176449965
000180 30 d1 2a b8 e3 c0 35 bf bb 71 11 c4 24 03 67 bf
       -0.0003319316821646266 -0.0028091161807834697
000190 4b f1 ad 50 2f 05 79 bf 45 53 11 a9 5c c7 b5 3f
       -0.0061084602592667665 0.08507327201489286
0001a0 c4 40 8c 32 e4 43 81 bf d8 f5 b3 66 ed 6f 5c bf
       -0.008430273811910978 -0.0017356699343616857
0001b0 01 c0 15 d0 65 5c 70 bf 5f ab f7 c2 72 b4 7b 3f
       -0.003994367319464232 0.0067638857721970804
0001c0 a7 39 56 43 c0 eb 68 3f cb 06 7a 8a f2 5c 3a bf
       0.0030421023499862146 -0.00040226861390389436
0001d0 3f 10 a8 1d 7f fc 7c bf 08 cd f0 f2 ab 85 82 bf
       -0.007076736971161123 -0.009044020987949
0001e0 35 03 3f 2f cb 24 80 bf 8a 10 83 fd 6b a8 38 bf
       -0.007882678393686152 -0.00037624966126893116
0001f0 ef ec 0f 9c b4 fa 77 3f 4d 2f d6 f3 10 4f 4d 3f
       0.005854325777359322 0.000894435193616408
000200 45 61 bf 70 a1 93 55 3f fa 6b 68 ff b5 43 b5 bf
       0.001316936165485742 -0.08306443677467704
000210 2b f8 2e c1 ce 56 77 3f 4a 0a 9c 4b e3 0c 6a bf
       0.005698020587201961 -0.003179973541479063
000220 18 fa 2b 4b f4 7f 74 3f 7b c9 f0 05 cc be 6b 3f
       0.0050048392029098596 0.003386877520392404
000230 47 95 bf 06 b8 ec 54 3f c7 f4 7a e4 ba e6 39 bf
       0.0012771412975721306 -0.0003952223091621795
000240 dd 47 fc 60 ab c9 92 3f 46 92 4a 2b e4 a3 8b bf
       0.018347432894252214 -0.01349619156946703
000250 93 24 5f da 2e fd a3 bf 32 f8 cb 51 1f 4e 64 3f
       -0.03904100814504221 0.002478657885489199
000260 5e 4b a0 d5 9b 17 6f 3f 95 5d 60 27 75 c3 7b bf
       0.0037954372064716154 -0.00677819979866658
000270 da 1b 09 6a 68 01 83 bf 1f 37 ea fa f2 56 6a bf
       -0.009280029045056471 -0.003215288706377786
000280 c1 26 ae a6 9b 0d 63 bf 8a ee 2f ee 68 dc 6a 3f
       -0.0023258247433134154 0.003278927747940423
000290 7e 4f 1b 04 8e 0d 98 3f cf c9 15 b9 92 ef 5a 3f
       0.023489207268382988 0.0016440327493368772
0002a0 33 3f 24 3e 42 5f 4d 3f 37 94 ce 3a eb 45 56 3f
       0.0008963654948121791 0.001359443394201477
0002b0 f9 9f ee 36 d5 0d 93 bf ca 5e 6c eb 36 7d 7a 3f
       -0.018607455709258123 0.0064670701310871135
0002c0 b0 6c f5 b0 cd 9c 83 3f ee a9 72 59 0c b1 51 3f
       0.009576422655916822 0.0010798092460314562
0002d0 0c a9 d6 2e dd a2 61 bf 13 61 03 2b d8 46 85 bf
       -0.0021528549175019503 -0.01038903123155469
0002e0 6c f5 f0 77 a9 36 63 bf 62 50 3f 4e de 32 8b 3f
       -0.0023454008037606024 0.013280617487829886
0002f0 90 99 fd a3 b9 3f a1 3f 9d 20 d7 5c 20 5e 7e 3f
       0.03368930937613179 0.007413984696036516
000300 a0 9d 9a 7f c3 09 70 3f c5 3a 68 dd 94 f8 8a 3f
       0.003915561357337977 0.013169444090661906
000310 00 85 6e 29 5d 57 60 bf b7 7c 47 7a eb a1 65 3f
       -0.0019947833602179665 0.002640685956279389
000320 4b 49 61 38 e3 e9 75 3f 0b bc c0 f2 17 7c b6 3f
       0.005350005702057746 0.08783101727088664
000330 d2 b7 f0 24 75 ca 6a 3f 2c b3 68 a7 c5 bf 74 3f
       0.003270367429215584 0.005065700612743734
000340 b0 a2 8b c5 2b 57 32 3f b4 92 c2 b2 3a be 96 bf
       0.0002798539986046773 -0.022210042153022427
000350 fc 25 98 df 21 12 91 bf f0 66 eb 38 43 cf 92 3f
       -0.016670731804003566 0.018368769024937615
000360 26 26 b2 68 d4 96 63 3f ea d4 8e 40 d2 19 6c 3f
       0.002391257153764997 0.003430281304157225
000370 70 a1 7e 16 f9 0a 50 3f 29 37 1f e4 94 a5 b5 bf
       0.000979178666947158 -0.08455782479651631
000380 ed 73 98 c9 b8 66 82 bf 5a 04 31 92 57 79 6a 3f
       -0.008984988834578512 0.0032316885349535198
000390 8c c6 03 2b 8f 9a 9d bf 8e 7e 2d 3b 97 11 8e 3f
       -0.028909909248744856 0.014681989186726054
0003a0 13 a0 dd f8 e2 31 81 3f f7 7c 3d 0c 3f 2d 4a 3f
       0.008395932407168549 0.0007988508082056579
0003b0 e6 76 31 59 04 75 79 bf fa 12 59 72 23 f4 6a 3f
       -0.006215111719112909 0.0032902424161725926
0003c0 7b ea 69 f0 d9 64 92 3f 5d 03 16 cb 7f 8e 63 3f
       0.01796284227246268 0.0023872848475438428
0003d0 39 24 45 a2 50 f9 67 3f fc 16 95 f5 49 50 77 3f
       0.0029264998321747696 0.005691803840198292
0003e0 93 62 28 be 31 54 77 3f 2f fc 97 53 66 d8 36 3f
       0.005695528323962268 0.00034859178740015683
0003f0 b6 ac 94 6f 84 5f 6f 3f 33 9b 1d 79 a1 c5 6c bf
       0.0038297258985458783 -0.0035122064372673733
000400 be bf 75 d8 e8 50 8e 3f ca f1 b0 3f 91 fc 7e 3f
       0.014802760225137376 0.007565085771656441
000410 64 7a 97 d8 99 35 55 bf e8 38 9f 7f d3 c2 69 3f
       -0.0012945177462523544 0.0031446581678898806
000420 53 3a a3 df 2d 1b 69 bf 44 fc 7f 61 51 5c 78 bf
       -0.0030647178619809617 -0.005947416204434456
000430 28 c6 3e 45 a3 89 4f 3f 3d b5 ac 42 be c5 62 bf
       0.0009624526232895935 -0.0022915569328662276
000440 36 eb 29 6f 33 07 64 bf 7c 7e dd c8 2a b8 33 bf
       -0.0024448399138327316 -0.00030089420839905074
000450 8a a4 a2 9d 37 d0 5e 3f 2d 4b 46 19 15 94 54 3f
       0.0018806975481686938 0.0012560087244295013
000460 59 61 e9 a5 02 04 91 3f 36 51 eb aa 89 04 92 bf
       0.016616860748713467 -0.017595435196953356
000470 44 2a 5b c8 1a 77 80 bf 39 cc 89 9e be 63 81 3f
       -0.00803967403353057 0.008491028989032855
000480 f9 96 9f 93 1d af 7b bf 59 b0 3c 9d c1 52 2b bf
       -0.006758800061992914 -0.00020845998243979277
000490 a8 6e cb a0 b6 c8 8c bf db 0f 3e b2 1b a2 7b 3f
       -0.014054705411971583 0.006746395290864594
0004a0 59 03 7a 11 b6 1b f1 be 08 35 e7 da d5 c9 81 bf
       -1.631569565896675e-05 -0.008685751669782707
0004b0 18 d9 1b 64 14 a3 b2 3f df 84 14 18 6c f4 9a bf
       0.072800898018475 -0.026323021859870784
0004c0 0c 4d 08 86 21 c6 aa 3f b1 49 08 29 71 2e c4 bf
       0.05229286919725426 -0.15766729835065754
0004d0 66 98 a9 c2 03 a6 b6 bf c5 b8 18 50 88 06 75 3f
       -0.08847068312170023 0.005133182975937516
0004e0 0f fe ba 12 f4 c7 ce 3f e0 4c 8a b9 e4 77 71 3f
       0.24047709383556579 0.004264729934806172
0004f0 f6 cd 88 fa 41 ff b3 3f af 9a ed 4a 19 ef bb bf
       0.07811367384493181 -0.1091171081476243
000500 42 1a db f7 48 98 b2 3f 09 bc a2 6e 28 be bd 3f
       0.07263618518036544 0.116182829867043
000510 54 19 22 b6 2d cd 7d 3f b0 ea 7c 44 3d d9 78 3f
       0.007275751648313584 0.006066550565999293
000520 68 58 bb 51 e3 8d 77 3f 40 fd fa 43 02 6e cb bf
       0.005750549283865515 -0.21429470366818215
000530 c3 f3 d0 f1 da d7 a8 3f 7a c8 bc 79 a4 33 70 bf
       0.048521844881612285 -0.003955500109258487
000540 24 0a 57 b4 54 b8 a2 bf a8 86 ca fb 33 94 8f 3f
       -0.03656258298316953 0.015419393655352678
000550 9b 4b 4c 8d b7 f5 96 bf 2f cc 61 5f fd ad a2 bf
       -0.02242171096720434 -0.036483686345399106
000560 c7 74 e4 d6 09 3e 95 bf e6 d6 9f 03 4a a3 9e bf
       -0.020744470349303847 -0.029919773551191485
000570 c3 b2 06 94 c7 65 68 3f aa 0a c3 39 a4 6c 73 3f
       0.0029782197963953163 0.004742280489326825
000580 fe 2f e9 26 bb c8 9f bf 10 8d 16 fd 60 9e 35 bf
       -0.031039165735180056 -0.0003298746861110794
000590 28 0b 64 ce 5a d2 99 bf 3f 1a 7a 16 17 f0 7b 3f
       -0.02521650204381412 0.0068207647196972246
0005a0 b2 3a d2 99 ac 16 70 3f 34 2c dc 58 8d 56 84 3f
       0.003927873823285454 0.009930710100453856
0005b0 2a 17 78 b6 9c a2 99 bf af 59 33 d5 b8 ca 75 3f
       -0.02503437865927719 0.005320283892805851
0005c0 62 00 95 96 d6 05 7b bf 32 a3 38 6d f7 dc 9f bf
       -0.006597364649962941 -0.031116357842765292
0005d0 4b e8 7e 0f 44 7b 68 3f 2b 02 da 9e cc d5 82 bf
       0.0029884652430754214 -0.00919685230042074
0005e0 af 42 6f cb f5 f1 b2 3f f3 18 4d 58 4a b3 98 3f
       0.07400451866784395 0.024121438636279312
0005f0 8b 84 3c 75 8d 2a ae bf 24 15 b9 f7 9f b5 43 3f
       -0.0589184003458821 0.0006014853565338468
000600 52 19 e8 4d c6 a7 76 3f ca 0b 79 3f f4 05 8b 3f
       0.005531096102009707 0.013194950282132373
000610 e3 5d 99 b7 bc 5a 9a bf a9 b9 aa c8 60 80 8f bf
       -0.0257367598590842 -0.015381580470912608
000620 70 eb 7e b8 99 b5 95 3f 38 d6 9f 24 94 e3 71 bf
       0.021200563321808585 -0.004367426570743009
000630 12 da e8 c9 00 af a9 bf 49 4f c6 34 d0 22 7a bf
       -0.05016329254833719 -0.006380856805112086
000640 ca 37 67 f6 c0 33 86 bf 5c de 0f 25 c9 0c a3 3f
       -0.010840899963024859 0.037206922315758034
000650 08 3b 07 7f dc 12 a2 3f e3 6f a3 49 fe 5b 9e bf
       0.03530015040052176 -0.029647801632435643
000660 2b c4 6c 0f 89 39 72 bf 4a 3f 5b b2 07 c6 83 bf
       -0.004449401275267421 -0.009655056124216483
000670 75 cc 51 19 7d 92 63 bf af 8a cc c8 87 7c c0 3f
       -0.0023891871774651082 0.12880036644590606
000680 0b 3c 9a 37 ee 78 95 bf 88 6c 75 6c 38 82 80 bf
       -0.02096912588472936 -0.0080608757113423
000690 04 1b 78 dc 63 4c 9c 3f 59 34 f5 96 5a 56 7a bf
       0.027635155040139928 -0.0064300097140633445
0006a0 0d a7 6e dc ce a8 70 3f 3e 38 97 3e b9 9c 83 bf
       0.004067237902668952 -0.009576270315758358
0006b0 b7 ac 7d 54 49 62 8a bf ee 70 4b 76 95 7e 70 3f
       -0.012882779017408514 0.004026969753535987
0006c0 42 10 7d a3 d1 3c 4e bf 0e 1d 2d 85 d8 18 90 3f
       -0.0009227775217159966 0.015719779137069394
0006d0 4c 42 ea f0 42 52 78 bf 0d 6c 49 05 4b fb a4 3f
       -0.005937825668880747 0.04097971381698793
0006e0 28 60 ac b4 87 7d 64 3f 63 c5 1d 35 3e c9 ac 3f
       0.002501263666442117 0.056222862228319646
0006f0 4f c4 88 f7 b0 f6 a1 3f 39 e0 5e d0 89 be 91 bf
       0.03508523008020658 -0.017328408568318052
000700 aa e5 46 d7 29 d2 af bf 24 68 fc 92 ab 1f a3 bf
       -0.06215029480831487 -0.037350999539015356
000710 6c 1e 0b 6b 5f 0f a7 3f 93 08 53 05 62 39 6b bf
       0.04503915960009128 -0.0033232607334819446
000720 73 a1 81 01 5b 28 82 3f e7 87 93 08 91 c6 43 3f
       0.00886603449198795 0.0006035049601928994
000730 81 fc 55 e2 dd b4 c2 bf ce 72 ab 0e 7e 71 8d 3f
       -0.1461446147113499 0.014376625845608084
000740 ff ba aa 22 b3 23 85 bf 79 7a 10 b5 1b 3e 7e 3f
       -0.010321998115015328 0.007383449775288591
000750 b5 e1 f1 9c cb 7f 89 bf ca 24 97 81 dd bb 87 bf
       -0.012450781561924676 -0.011588793294225037
000760 67 44 81 24 53 50 73 3f e1 fc 52 9b a9 7e 58 3f
       0.00471527555062421 0.0014950424495479497
000770 86 83 9e 94 2f ed 8b 3f 15 7c 7c 1a 12 a3 4b bf
       0.013635989878652454 -0.0008434141536531903
000780 0c a3 e2 bb 50 54 a0 3f 03 c9 71 44 65 bb 5c 3f
       0.03189327519914373 0.0017536629618715722
000790 0c 29 b1 be d8 74 70 3f 88 5a dd 43 3b a7 93 bf
       0.0040176836583418855 -0.019192625062113083
0007a0 8f ae 77 12 26 57 95 bf bc d3 ba 35 c1 cd 91 3f
       -0.020840258481185144 0.017386454491049128
0007b0 9e 8e 50 61 95 e2 74 bf 92 df 6c b5 04 9d 7f 3f
       -0.005098899379877201 0.007718103783922363
0007c0 c4 a0 73 cc 9d 94 7a bf 36 7f 04 42 95 5d 94 3f
       -0.00648938789456838 0.01988824096144911
0007d0 2f aa ac fb 93 a1 69 bf 12 47 2a 65 25 ff 9d 3f
       -0.0031288042349804294 0.029293617534285117
0007e0 c1 a4 0b 24 cd 13 72 bf 96 1e 83 e9 53 df 9c bf
       -0.004413415271053712 -0.028195677878811574
0007f0 2b ff 34 98 13 56 75 3f 32 71 0f c0 47 9c 97 bf
       0.0052090421116302394 -0.0230570994352643
