last_w_1_M1_for_0_1.npy (npy, 27400 bytes, 1 tensors)

array f8 [3409]
000000 19 f0 87 5e 23 0b 30 3f e2 82 f7 e4 9c 6c 5a bf
       0.0002448045111405075 -0.0016128093883411234
000010 1e 89 56 9c 25 44 7b 3f 29 63 4d a9 cf d0 5a 3f
       0.006656786839274424 0.0016366985266442291
000020 58 b6 58 dc 1f ae 81 3f 3b ee 1a ef ee 0f 81 3f
       0.008632897293035999 0.008331171676551388
000030 ac 1c 6e 1c e5 32 93 bf 18 25 8c 0b 48 01 64 bf
       -0.018748836384045717 -0.002442017281627639
000040 32 00 d3 c3 99 e6 75 bf e0 16 d1 93 e2 72 6e bf
       -0.0053468710368065765 -0.0037168908443473286
000050 08 8e 25 b3 3d d0 7c 3f e4 2e 42 0c c1 bd 79 bf
       0.007034531607448276 -0.006284479230213445
000060 21 b0 52 25 66 96 77 3f 7a 4c 95 3a 3e 5e 87 3f
       0.005758666045192513 0.011410223162476852
000070 2c 8c ce 32 42 77 40 bf 82 65 4c eb b5 d5 89 3f
       -0.000502497981518584 0.012614651911962541
000080 c3 6a b1 5b 8c d3 6d 3f b2 cd 8f ce 11 74 73 3f
       0.00364091314035639 0.004749364431507018
000090 43 19 ff d1 c2 d3 af 3f 8e ad f8 07 8d 97 9a 3f
       0.06216248334344467 0.025968745814834153
0000a0 d3 52 07 2e 6f a3 61 bf e1 fe 7d 6a e0 15 8b 3f
       -0.0021531268578008716 0.013225320100672846
0000b0 1f db 96 1e d8 d0 84 bf 5d fe 7b 54 56 46 6f 3f
       -0.010163963731299184 0.0038177190907616025
0000c0 71 ef d0 f0 7f 07 71 bf b5 07 77 2b 26 0b 8d bf
       -0.004157542961419001 -0.014181421472020487
0000d0 88 c6 ac 39 40 42 6f 3f 29 ce f5 8d a0 74 3c bf
       0.0038157705688711165 -0.0004341976145589588
0000e0 eb c7 b7 e6 77 02 80 3f ad b1 4e cc 73 27 8e 3f
       0.007817208031131137 0.014723686859576224
0000f0 2b 40 9e f8 ad 0d 7f bf 8d 0c ba 03 82 18 6b 3f
       -0.0075814052342054 0.0033075847002819792
000100 ba 74 79 3e e5 0b 5e 3f 9a ff 0f da 9c 65 73 3f
       0.0018338907920203832 0.004735577299470517
000110 39 ab 73 19 8d 3a 78 3f 4d 82 91 5d 59 0d 31 bf
       0.005915213746656539 -0.0002601950814718243
000120 86 e0 28 eb 2b 76 75 bf dc 39 6f df 66 48 88 3f
       -0.005239650303842441 0.011856845563582512
000130 1c e6 fb 11 2a 29 59 3f 7f 5a a5 16 56 04 2f bf
       0.0015356932489666358 -0.00023664046177414644
000140 06 0a 95 0c a5 ca 5f 3f 5a a1 7c 73 bd 77 7b bf
       0.0019404041107270466 -0.0067059898790734155
000150 fd 2e 93 57 c7 b4 94 3f 63 3a fd 0b e0 d8 6c 3f
       0.02022086593642224 0.003521382895918011
000160 33 c8 25 59 fe 59 7b 3f e8 03 98 e3 1f 76 37 bf
       0.0066776214101640806 -0.00035799292126631336
000170 97 b7 a4 56 60 5d 91 bf 07 d1 a4 ab 1a 2c 77 bf
       -0.016957764900488916 -0.005657295400215873
000180 9d ce 81 67 fc ff 70 bf 60 e4 69 20 7f 36 8f bf
       -0.004150377230064753 -0.015240662743268796
000190 be 3c 7d 7f 42 e8 8a 3f 72 b3 41 05 21 1d 75 3f
       0.013138312831556195 0.005154732691249874
0001a0 2b bf c7 91 0b b7 73 3f 8d 80 0c 04 99 5f 7a 3f
       0.004813237374477623 0.006438825338392584
0001b0 e0 78 1e e8 b5 5d 8d 3f 78 9d c3 66 03 1f 84 bf
       0.014338894983492556 -0.009824778150188548
0001c0 29 40 f0 9a f7 97 7c bf 37 ca 7a 46 fc 7c 59 3f
       -0.006980864723132676 0.0015556777597508628
0001d0 6e 35 b3 a3 0f 38 59 3f 21 44 49 f1 f5 a1 89 3f
       0.0015392449120555612 0.012515946794481593
0001e0 4b 25 d0 d4 b1 75 77 3f 8a f8 47 7a 18 d4 60 bf
       0.005727476743240099 -0.0020542600707350077
0001f0 f5 19 ea 99 e6 b0 61 3f c3 4a c1 e2 f3 05 7e bf
       0.00215954818060315 -0.007329895666844779
000200 1d c6 d1 65 ba 58 73 bf 90 d8 e4 0e 06 72 56 3f
       -0.0047232896005069665 0.0013699587976368256
000210 c4 21 42 13 89 e6 a6 3f a5 55 1f 57 18 ae 7a bf
       0.044727595902319034 -0.006513686255819638
000220 17 39 c8 1b 7d 1f 6f 3f ed 9b 67 e6 9b 58 62 3f
       0.0037991946721894865 0.0022395176813350044
000230 df c2 63 74 c4 72 1a 3f 19 65 65 29 8a 90 71 bf
       0.00010089229644783978 -0.004288234419015846
000240 22 95 1d fc f9 4d 72 bf 6a 7b b9 2f 80 7d 6f 3f
       -0.004468895438411809 0.003844023098096218
000250 16 17 e2 81 95 57 26 3f 34 c1 b0 b3 c3 21 80 3f
       0.0001704568866822068 0.007876900597779547
000260 33 6d 7a 32 0d 13 3d bf b9 64 42 ea 14 12 4f 3f
       -0.0004436404437712815 0.0009482004284279345
000270 24 f6 4d bf 04 fd 90 bf fe 54 80 52 a4 7d 50 3f
       -0.016590189148237525 0.0010065178594279019
000280 67 41 8e ad c1 9a 83 3f 35 9f b7 cd 8b d5 7a bf
       0.009572518452643576 -0.006551309688326336
000290 c1 70 f7 02 0a 64 71 bf 3c 0d 0b 6d 10 f1 75 bf
       -0.004245795352712801 -0.005356849826685658
0002a0 cc 01 01 78 f6 00 6c bf 95 9f f1 25 e5 52 ae bf
       -0.0034184278338502457 -0.059226189500633776
0002b0 1e 05 45 5a 8c c3 8b 3f 7c cc d3 b7 61 b9 71 3f
       0.013556572441873412 0.00432718440173396
0002c0 4b 39 af 88 f6 65 73 bf 5b d0 cc cd 6b 51 7f bf
       -0.004735911391391244 -0.007646008595475785
0002d0 01 e4 f9 a1 34 26 54 3f 3f 30 8b e0 60 1a 46 3f
       0.001229812049045487 0.0006745312722045218
0002e0 f4 2e ed bc 15 40 82 3f b2 00 75 5d a3 02 95 bf
       0.008911294773177293 -0.02051787622372165
0002f0 40 a5 13 8e 67 5c 6c 3f 2e d9 05 b3 36 df 5c 3f
       0.0034620306547493984 0.0017622026608399943
000300 35 d7 b4 65 f2 6d 87 3f 01 7e 41 14 a6 dc 85 3f
       0.011440175751527096 0.01067476033512005
000310 16 d3 cd c2 50 94 95 3f 98 ff f9 6a 48 a5 57 3f
       0.02107359112729331 0.0014432151037055748
000320 e4 c4 7c 0a 13 db 1f 3f 82 eb f5 31 13 c4 83 bf
       0.00012152007786593897 -0.009651327097108146
000330 dd 2c 80 74 54 7b 83 bf f4 11 65 81 db 19 89 bf
       -0.00951257687122225 -0.012256350408855511
000340 6f 04 ae 9a ca ca 40 bf b3 c9 47 4e 61 59 75 3f
       -0.0005124558714301295 0.005212192631449164
000350 d3 3f a1 aa 59 1d 74 3f f8 4c d0 0b 29 bf 7b bf
       0.0049108030890038954 -0.00677410157824742
000360 31 1a 29 c9 60 63 82 bf 2f ce 87 b0 a5 6c 69 3f
       -0.008978611124928456 0.0031035648464639225
000370 ac 74 d6 ad 09 aa 3b bf af fc 02 55 5e 52 91 bf
       -0.00042212234787959257 -0.016915773333263825
000380 1c f5 63 db fe be 63 3f 6d 4e d0 7c 68 33 74 3f
       0.0024104097057021778 0.004931839136606092
000390 d9 cd a2 1b 41 4b 66 3f 96 c9 73 38 8a 4b 82 3f
       0.0027214309348779606 0.008933143470561327
0003a0 7f 39 46 34 6a 92 7d bf 59 97 c5 01 6c cd 73 3f
       -0.007219710216658347 0.00483457746699919
0003b0 0f 5e 72 37 7e 20 7e bf d5 25 61 ab 61 68 57 bf
       -0.007355206521558979 -0.0014286950877412292
0003c0 ac ce 62 9f c0 4e 91 bf 4c 4f f0 42 ee 4a 82 3f
       -0.016901979187152236 0.008931981485183059
0003d0 de 7f ae 6c f5 eb 69 bf 87 2c 07 df 2e 62 79 3f
       -0.003164271683502292 0.006197150316846429
0003e0 26 3e e2 40 a1 4d 80 bf 1f 97 eb 3a 1e 12 63 3f
       -0.007960567276568641 0.0023279753144035543
0003f0 4e 84 45 65 67 1d 5e bf 18 36 c8 de f7 09 87 bf
       -0.0018380651209428836 -0.011249481664914504
000400 88 7e 0b e7 9e c8 8c bf de 71 fc 63 cb 11 5a bf
       -0.014054528642588396 -0.0015911566005747317
000410 81 c6 01 ef 60 20 92 3f c8 b4 71 8f e0 6e 87 bf
       0.017701639736009248 -0.011441950204437737
000420 5a 0c e7 b4 fc 73 6f 3f ea e1 d4 45 ee 20 7c bf
       0.0038394866635101223 -0.0068673427133991525
000430 e8 ca 33 45 2f 7b 72 bf 04 7f ac 30 0e f7 53 bf
       -0.004512009286588216 -0.001218570573378431
000440 61 af fe 0d 52 0c a5 3f 87 48 e5 28 5d ba 87 bf
       0.04110962315402734 -0.011585929689918352
000450 0b b3 69 60 61 7d 66 3f d5 e5 55 21 f2 5b 76 bf
       0.0027453328978509542 -0.005458780118141123
000460 7d 1d f1 49 0c 91 85 bf 56 02 9f 76 23 9d 48 bf
       -0.010530563360716222 -0.0007511542473751058
000470 77 37 34 cb 3d a5 5c 3f 5c ea 5a 0d d5 23 88 3f
       0.0017483809904805506 0.01178709456450127
000480 c3 72 27 df f7 b7 9a bf 40 1d 91 55 70 23 7b bf
       -0.02609240817570214 -0.0066255939537492314
000490 6d c3 60 a4 3d c5 77 3f 42 dd a8 9e 83 02 7d 3f
       0.005803337850054696 0.0070824757954633406
0004a0 9d e9 d3 1f 4c 57 81 3f 86 54 75 9a 91 4c 53 bf
       0.008467287751490466 -0.0011779233844511363
0004b0 b7 92 58 33 75 c7 62 bf c2 c8 90 2c 99 b0 ab bf
       -0.0022923745225561193 -0.054081713380939714
0004c0 b6 22 7c ff 9c be 79 3f 5e 63 87 5f d3 96 47 3f
       0.006285298608198422 0.0007198841186052231
0004d0 21 56 0f 8b cd 8b 8f bf c0 a6 1e 15 ea c9 8a 3f
       -0.015403371626159292 0.01308043362572009
0004e0 c5 c6 73 27 9c e5 92 3f 20 63 1d aa 9c 43 60 3f
       0.018454017551397656 0.0019853648999909185
0004f0 95 85 38 f2 2f 22 5d 3f af 21 15 d2 1f 14 84 bf
       0.0017781704162945545 -0.009804009054861533
000500 77 85 26 c5 7d 3b 92 3f f5 54 48 51 6d b7 83 3f
       0.017805066259489046 0.0096272030287232
000510 2d 25 c3 99 70 5a 71 bf d0 85 42 e9 c9 d1 7c 3f
       -0.0042366407835257415 0.007036007609856523
000520 05 a8 f4 32 87 63 39 bf fc 3f 95 ef 6d 9d 34 3f
       -0.0003874020648760859 0.0003145593069193706
000530 3a 86 96 19 fa f6 44 bf b5 3a 8e 82 65 4b 64 3f
       -0.0006397935095955939 0.002477358113942197
000540 d7 a3 1b e5 64 d7 75 bf 5c 8b 03 65 5a 3d 7c 3f
       -0.005332368966016929 0.006894448379372555
000550 68 0a 8d 55 1c e7 7a 3f e6 29 d0 38 4d 1c 3f 3f
       0.006568060570148228 0.0004747093706220215
000560 2c 82 d9 ef 5b bc 78 3f 9d b5 2a 7b 8d 57 88 bf
       0.0060390082631732005 -0.0118857434475455
000570 bf 40 85 3b ac 42 90 3f 30 c4 a3 aa 3d 5e 73 3f
       0.01587933648380679 0.004728546986585022
000580 aa d7 20 62 66 f3 52 bf 74 c5 b4 73 61 ef 68 3f
       -0.0011566638791129327 0.0030438330992629773
000590 4b 92 8a ec 04 ee 83 3f e8 03 9c 65 90 03 7c bf
       0.009731329411189501 -0.006839336443364076
0005a0 33 6f be 03 10 4e 74 bf 3f f4 e3 07 00 e6 34 3f
       -0.004957258755805149 0.00031888485672465836
0005b0 a5 d6 c1 9d 7e fc 5f 3f 55 46 56 2d e4 52 7d 3f
       0.0019522892462452781 0.007159129444873698
0005c0 e9 56 47 f0 2d 77 8d 3f d4 b7 77 bc 91 8b 79 3f
       0.01438747300646122 0.0062366192646389935
0005d0 10 a7 0b 9f 5d 4c 55 bf e8 59 e1 a1 9f 3c 64 bf
       -0.0012999452848653816 -0.0024703138179049573
0005e0 31 90 ab 9c a3 ab 51 3f 85 a0 98 c4 91 e7 84 bf
       0.0010785196088187838 -0.010207308590068695
0005f0 c6 ea c0 b6 0d 57 4e bf 18 00 b3 49 e0 13 68 3f
       -0.0009259049379644827 0.0029391651747516893
000600 97 a4 f0 3b 90 b8 73 bf 3b eb 5d e4 e5 23 55 bf
       -0.004814685263263694 -0.001290297035181977
000610 40 72 db 10 af 87 95 bf f3 23 f3 a6 23 0c 48 bf
       -0.021025405315287182 -0.0007338689882995228
000620 a6 76 4d 90 b3 e6 83 3f 6a f8 ee b7 dd 20 71 bf
       0.009717371789231887 -0.0041817341688653396
000630 7a e9 25 1b 6c 93 48 bf b6 cb 5b b7 06 14 6f 3f
       -0.0007499959813650891 0.0037937289406441933
000640 f6 63 d0 02 76 4a 8d 3f 1d 92 b8 c8 67 0e 93 bf
       0.014302179299237477 -0.01860963976482043
000650 bc 75 dc 6c 23 1e 72 3f fe 77 47 90 cd c0 49 bf
       0.004423273448791173 -0.000785923359724938
000660 7c 51 a4 4e 2a 6c 85 3f 1b 86 5a b4 2a 39 7b 3f
       0.010460215115508424 0.006646315397718118
000670 f4 8c 70 3e e1 bb 91 3f 0b 34 4a 66 87 a3 a2 3f
       0.01731826728440651 0.036403876530222666
000680 af b8 cc 88 d7 4c 46 3f 17 cf ee 5f 06 98 50 bf
       0.0006805469907698226 -0.001012808060960551
000690 e2 54 e2 81 58 5a 84 bf ec 5a cf 88 24 08 6b bf
       -0.009937945808170704 -0.003299781185414621
0006a0 2e 70 6c b5 19 4e 89 bf 61 6d 23 7b b1 de 54 bf
       -0.012355995987995607 -0.0012737973416310988
0006b0 b6 f3 1e c6 3f 29 65 3f 74 a8 31 3e cb 16 77 3f
       0.002583145674150046 0.005636972348933001
0006c0 9e 82 f7 d0 1d 3c 84 3f ab d0 e6 9e 33 ca 73 3f
       0.00988028806654145 0.00483150638904221
0006d0 4e 27 53 f4 54 27 77 bf 4a 55 43 90 54 79 77 bf
       -0.005652744153118961 -0.005730943990973467
0006e0 2a 1c 08 38 0c 1d 83 3f 63 88 40 56 7a 65 6b bf
       0.009332747898055233 -0.003344286860753208
0006f0 ce 7a 1f ad 99 45 6f 3f 1e 6f 9c 32 d8 1c 73 bf
       0.0038173676957592223 -0.0046661801550518505
000700 72 66 9f 98 11 b9 6b bf d7 e5 4c fc cc 9c a4 3f
       -0.003384146087211098 0.040258794592272266
000710 c9 28 a3 44 01 d1 7e bf 4e b5 4a ba 23 78 72 3f
       -0.007523541406223974 0.004509105264032099
000720 b7 4b 98 9c 7e 80 a3 3f b0 bd 84 1e 37 50 6f 3f
       0.03808971082266715 0.0038224293276909113
000730 11 51 9f c1 40 f3 a2 bf aa 9f e3 38 42 70 95 bf
       -0.03701212276033251 -0.02093604538177344
000740 42 cc 89 24 ed 3c 8d bf bf 7d 72 b8 16 65 50 bf
       -0.014276364018973923 -0.0010006639366010176
000750 5a b0 a4 7a 53 37 9b 3f 20 c6 07 1f 63 ec 81 3f
       0.02657823978476901 0.008751654037925383
000760 63 74 fa 96 3a 10 a0 bf 67 b1 24 d5 66 47 89 3f
       -0.03137381642339034 0.01234321916543797
000770 e4 a6 ee 54 c7 e0 7e bf b9 d4 04 21 29 80 28 3f
       -0.007538584365571064 0.00018692495405906397
000780 98 fc 69 88 16 0f 7d bf bc 89 2f 02 e1 93 8f 3f
       -0.007094467181217777 0.015418775443269854
000790 74 d9 15 9d 4a 27 88 bf c6 20 b9 e8 e4 7a 71 3f
       -0.011793692511429234 0.0042675916443572545
0007a0 59 5e fd 8f 1e 92 91 bf a1 f1 ee 39 87 b7 63 bf
       -0.017158963716921913 -0.002406849016067095
0007b0 55 54 a0 71 31 1f 82 bf d1 13 e3 6e c7 97 8b 3f
       -0.008848558693026623 0.013473089286330538
0007c0 40 eb bd c4 5f 79 91 3f 73 f6 2a ae 7d ef 8b bf
       0.017064567931338148 -0.013640386464767595
0007d0 ea cf ad 43 9b 4a 91 bf 09 61 95 fb 4e 1f a8 3f
       -0.016886163717074888 0.04711386509979049
0007e0 e8 0b 73 7a 08 df 71 3f 2f 5a f5 db c1 fb 5d bf
       0.004363091581754276 -0.0018300431400654173
0007f0 4c ca 00 b6 0a 99 72 3f 2b dc 01 25 54 79 60 bf
       0.004540483321806631 -0.0020109790275984105
