save_param/best_w_0_M3_for_0_1_2.npy (npy, 14168 bytes, 1 tensors)

array f8 [1755]
-0.004433207325331341 0.0026544237116827274 0.020650211217480303 -0.0021494545887135097 -0.0026229441718239902 -0.00780757506434286 -0.009544523967277533 -0.010177485740132433
-0.0018215883548146933 -0.0006028781522343286 0.017001507542745754 0.00183600627568552 -0.0015078999674296408 0.01112554009185286 -0.0024183756642272426 -0.0055082102905862325
0.01760744914494746 0.0033655972340491435 -0.0035167550359496793 0.0008869263234968719 -0.04538931986518999 0.004590648781744381 0.0029685154215863415 0.0011666219946521543
0.019426244748554762 0.006951056624888895 -0.007087110110934773 0.002065885288226416 0.008158505533751052 0.005639503682705679 0.0037429173930855213 0.005634674491221012
0.006950869448972716 -0.0018944354604846704 0.009289724258574997 -0.003320106463683763 -0.02902654472612028 0.005611319364090209 0.006782218525057035 -0.001150921101529544
0.0018963039770434561 -0.005689874089653277 -0.004228413703812285 -0.006170275363989062 0.00423332402611498 0.006265950739133409 -0.0020146510854799223 -0.009111122226634018
0.007836622664734833 -0.0010198905353211204 -0.0073261238062809295 0.04601143617892797 -0.009633137925502395 -0.0006095150792237093 -0.0023587791737593555 -0.005513607684511201
-0.0014885737715373193 0.0005129129341411007 -0.0037192144259864924 0.013491096168087103 0.0067249108932419775 -0.008102739014281393 0.0027673473070349073 -0.0008671924562364948
0.008763573418713118 -0.04129331235178323 0.004619592152136465 -0.006110285003693423 0.007633011057279143 -0.008933579685829748 0.0017997123635304535 0.002119787962392364
-0.0026089946821568374 -0.013681292563157674 -0.018931406237082 0.00016145437135572677 0.005862904968624681 -0.005340737843988433 -0.039373092030370226 0.00019048138886002293
-0.0026358557245501667 0.003483514826069127 0.03538798894837946 0.0019901343914867265 -0.0025635880733122537 0.0028645674950424083 -0.008876976601302938 0.0075815458299070436
0.007953878004784025 0.0003307117266529593 -0.02654171929296211 -0.00957364839490336 -0.0031403035530393145 0.005525070341966832 0.028656980710708848 0.0032029126258666506
-0.001665034832182647 0.019130856938563826 -0.003741568996553227 0.0054038994175955955 0.0035671898098366783 0.03796592142922418 0.0031473672241679046 0.0031824381118206913
0.0013763672577265516 -0.013789981608753882 -0.006444026472695038 0.02543000862804102 -0.0020315303373931223 -0.0005720315539023485 -0.00986883706144864 -0.042050908383748316
-0.00509903626589997 0.0023653734610237613 -0.018881357536464076 -0.0006204999001732167 0.015135929894689976 -0.0065641020448217475 -0.003532557870632218 0.002186928181517039
0.005195771991901125 0.006386858379335534 0.0015456253049840629 0.0012308131355574764 0.001937594250510735 -0.003042148546462898 -0.001748850621420907 0.0015520174581258091
0.0013252512129833568 0.0035151772717732658 -0.002573123752982654 -0.007096106719833977 0.010139317840258321 -0.004184421743790125 -0.0041919477968565474 0.015080007974771817
0.0006735680447467267 -0.012132119387985656 -0.001144576396666688 -0.0002219831428469183 -0.0010023065784400813 -0.016749402543241327 0.004178050346800219 0.00585787593126748
-0.008200023712486229 0.0041582555421346154 -0.0013050157782725361 0.00888728175610491 -0.003594029582978335 -0.010096260269491043 0.04276779475575279 -0.013018483568948412
0.007056769598610007 0.0049068172226844975 0.0021811958657105067 0.002210120288866225 -0.003136266250239319 0.008859588052632664 0.006618965078551265 0.003087342509537691
0.0059861682930245404 -0.003267345975721775 0.0013256309632864668 0.003817622341832701 0.004152486818256185 0.0037591699300147828 -0.008236276721063956 -0.010883386469173986
0.0012698807107177877 0.00896273500750151 -0.0008506056351930942 0.012118657982643093 -0.0006386101323693704 -0.009823084896399638 -0.0036282997024440424 0.0023879647306685485
0.003031507308067959 0.00999255582666373 0.007646642154758179 0.011654074412885499 -0.009089418228977004 -0.0021817121143986626 -0.006876759138356337 -0.010724389060617548
0.002113525743249444 -0.006283697054771743 0.0034295148384119374 0.00035054964228948285 7.795261944177933e-05 0.005116886616992045 -0.0062538930164608144 0.002366452310843928
-0.00027760689895843136 0.0020308404132247716 -0.00046280016971847693 0.005175246722498354 -0.004777749698666163 0.0008865344726473355 -0.0028080666448059804 -0.005833056436445187
-0.00021824429504668872 -0.0019907107370405876 0.0068130273759580105 0.008605321964527483 -0.003977948207390668 -0.008660816427716872 -0.013133180129434133 0.0021364268787716274
0.0002323595768110434 0.0019426985802535597 0.005368787086479179 0.010576468247686533 -0.018565272542508768 -7.458123020781373e-05 -0.0001151487651862355 -0.0022823107368732387
0.001946188641621266 -0.004723278711256676 -0.001779801483821428 -0.0019595640542592048 0.0015521705649911924 -0.0009050118491293546 -0.009114457428520488 0.0037200906207706342
0.0031124383615030128 0.0072290932662959426 -0.0007030730842022777 0.0011688053742402902 0.003560538714122162 0.002881900754212113 -0.0032514614111047915 -0.0011402871506610188
0.0009172104620085935 -0.004905898145339981 -0.0016986835152773463 0.004079268787577197 0.0026347761183173985 -0.003268597536642309 -0.00525278133586779 0.0033196912678989682
0.003901849240220122 -0.003278747663264852 -0.007011331074811931 -0.005333445551906722 -0.001998580775813582 -0.004607162666601178 -0.005867363525749167 -0.010099578967028422
0.0066005263193020984 0.005385544275894779 -0.004800034134744188 -0.0038903562990041315 0.0035565218882796915 -0.0041172862756647475 -0.00762962809866193 -0.0018595326212716829
00000000: 61b2 a807 8e28 72bf 7b43 01e1 babe 653f
00000010: 9599 5637 5425 953f ee57 35a5 bb9b 61bf
00000020: 46b0 fd6d b67c 65bf aea9 fff8 d5fa 7fbf
00000030: efdd 5c52 148c 83bf 7b66 4603 efd7 84bf
00000040: 8df7 489a 4bd8 5dbf afc2 41f9 4ec1 43bf
00000050: 9de1 83db d768 913f cd4c 32ba c414 5e3f
00000060: 7490 ed42 97b4 58bf 073e c2b6 fcc8 863f
00000070: 5fbf 648c b3cf 63bf 7dc2 ebf0 c68f 76bf
00000080: 9660 f9e8 af07 923f caed a741 2b92 6b3f
00000090: 9520 c27b 2bcf 6cbf c52c d5c6 1310 4d3f
000000a0: bd3d d1d8 443d a7bf d104 29e6 a4cd 723f
000000b0: a387 e894 6d51 683f abb6 15d4 2a1d 533f
000000c0: d23b 8437 79e4 933f d850 060e b678 7c3f
000000d0: 85d3 64a2 5f07 7dbf 5bcd 01b8 79ec 603f
000000e0: af12 9d13 68b5 803f d653 20be 7219 773f
000000f0: 0115 7079 77a9 6e3f fd48 9d6a 6214 773f
00000100: 7dc6 64cf 8378 7c3f ddf0 3796 d609 5fbf
00000110: 8216 09af 7d06 833f 24c9 c895 c432 6bbf
00000120: 151e 4271 22b9 9dbf 84b5 7f12 e5fb 763f
00000130: 23b0 26ec abc7 7b3f 2e35 721f 50db 52bf
00000140: 65a8 23e4 ac11 5f3f 8a7b 22f2 434e 77bf
00000150: 4e39 2629 d051 71bf 7e92 54ae 0046 79bf
00000160: feb5 ed43 f656 713f 1bfb 0b58 53aa 793f
00000170: e3b1 cc90 0781 60bf 012e f21f daa8 82bf
00000180: 7df3 72b0 a50c 803f 933b a91f bbb5 50bf
00000190: ea84 7862 ff01 7ebf 2ccf 429b cf8e a73f
000001a0: 977a c8e2 89ba 83bf c4a4 74aa fbf8 43bf
000001b0: d7ef 1ced b752 63bf c0d7 01cb 6f95 76bf
000001c0: dce3 a6ea 8763 58bf f3fa 8f23 a0ce 403f
000001d0: 7b0f 720a c277 6ebf 4d0c a246 38a1 8b3f
000001e0: 5c08 ae85 948b 7b3f 084b 9838 2b98 80bf
000001f0: 4fbe c545 8cab 663f 7769 939e 896a 4cbf
00000200: 31f3 d5e9 a2f2 813f 0f58 30a4 6524 a5bf
00000210: 74b5 6d53 feeb 723f 3b61 2924 1907 79bf
00000220: 39bd c6cd ca43 7f3f bedd b1c4 c44b 82bf
00000230: 4da7 966f 8a7c 5d3f 6d3d 227f 845d 613f
00000240: 47ca ba5a 755f 65bf d293 0101 f004 8cbf
00000250: 7f4a 9f2a c162 93bf a45f 527d 8229 253f
00000260: bec6 9891 b303 783f d0e5 0566 2be0 75bf
00000270: f3c5 39bd b528 a4bf 7160 daab 7ef7 283f
00000280: 0a0d 4944 ca97 65bf 0961 19c8 7589 6c3f
00000290: 1fb4 68de 5f1e a23f a9d9 0844 9d4d 603f
000002a0: 07e9 eddd 3b00 65bf 4025 abf6 6e77 673f
000002b0: 4306 85a1 172e 82bf b3fd 47b6 d30d 7f3f
000002c0: dc5f 416f 1f4a 803f 2295 e50c 6cac 353f
000002d0: 1e1d 5fa1 c02d 9bbf 767b 1356 599b 83bf
000002e0: 3404 eaa1 b1b9 69bf 9a5d d4c6 74a1 763f
000002f0: f781 d16b 4158 9d3f 9c82 5c9f fe3c 6a3f
00000300: a9c2 a889 a947 5bbf 9414 9513 0a97 933f
00000310: 3ac4 3a8f a3a6 6ebf 2aa7 4f34 6622 763f
00000320: 97c8 4c72 f038 6d3f f152 cded 4470 a33f
00000330: 6051 7be9 81c8 693f a9fa 9373 0e12 6a3f
00000340: ff78 fd16 e78c 563f fd22 2d00 ec3d 8cbf
00000350: fcca 462f 0d65 7abf 82e6 93fd 520a 9a3f
00000360: 0c97 848b 6da4 60bf 4336 7c68 8cbe 42bf
00000370: 1e84 6de3 1c36 84bf f9f2 8c58 b287 a5bf
00000380: c0ef 0c20 bae2 74bf 58b5 0d35 8c60 633f
00000390: 2e27 7e74 a255 93bf 3b1c a363 2155 44bf
000003a0: dd4f 231f 96ff 8e3f 2209 c3b9 f5e2 7abf
000003b0: f1a7 d190 4ff0 6cbf 590c 9620 52ea 613f
000003c0: f7e3 856c 2948 753f a49b d03d 1b29 7a3f
000003d0: 8af2 c088 d252 593f 738d 8a8a 672a 543f
000003e0: 724d 16fc dbbe 5f3f 0240 8810 d9eb 68bf
000003f0: 6eb7 5f0e 36a7 5cbf 981f 6e0e a26d 593f
00000400: 9390 99a7 81b6 553f a246 806d dccb 6c3f
00000410: b58d c34b 3b14 65bf 9259 a6a4 ce10 7dbf
00000420: 33a5 3834 ecc3 843f 350e ad28 af23 71bf
00000430: b8c7 1a6b 932b 71bf 3bbb 9968 44e2 8e3f
00000440: 4110 a65c 4c12 463f 4941 0580 b9d8 88bf
00000450: a5d4 408c b3c0 52bf 36fd 75ad 8418 2dbf
00000460: fdd6 657e fa6b 50bf 0561 9a60 c126 91bf
00000470: a3d8 9bd9 001d 713f d2f6 c798 6dfe 773f
00000480: 1b57 5f8d 2ccb 80bf c174 fd38 3f08 713f
00000490: 3f13 a905 a261 55bf 5745 f1c3 7e33 823f
000004a0: 8ac7 a1f0 3971 6dbf b4dd 5a1d 59ad 84bf
000004b0: 4493 980f a9e5 a53f 7f8e 6049 6fa9 8abf
000004c0: 7953 432a 8fe7 7c3f 0969 fbb7 2b19 743f
000004d0: cfc7 199d 4cde 613f cf8b 8c4b f51a 623f
000004e0: eb10 3e1f 3ab1 69bf 4866 89c7 f924 823f
000004f0: ce5d bbe8 7c1c 7b3f 133e 8563 a04a 693f
00000500: 6612 c0d0 f384 783f 27be 8803 1fc4 6abf
00000510: e57e 9168 19b8 553f 11ae 6963 2246 6f3f
00000520: 74bf 4db1 3202 713f e6c9 1afd 8ccb 6e3f
00000530: f61f 4359 2ede 80bf 887e a367 074a 86bf
00000540: 70a6 d407 44ce 543f 2662 ebed 0d5b 823f
00000550: e8f6 45b1 65df 4bbf f6a6 a7bd aad1 883f
00000560: c2ed 13d1 0ced 44bf 14c7 0123 201e 84bf
00000570: f196 fc91 18b9 6dbf 86d9 82cd ec8f 633f
00000580: 9713 dd17 88d5 683f d4f0 d423 fa76 843f
00000590: 7694 a9df 1552 7f3f 9579 bf63 17de 873f
000005a0: b7d5 4310 799d 82bf 07b7 c7c5 61df 61bf
000005b0: 419a a0f9 cd2a 7cbf b58a 4722 abf6 85bf
000005c0: 4bd0 497e 6250 613f 1b4b 9215 efbc 79bf
000005d0: 2ddb 4ec2 3618 6c3f 695c cf3f 3ff9 363f
000005e0: 4ba3 f7cd 4f6f 143f 744e d6ca 71f5 743f
000005f0: df73 a79f ae9d 79bf 8735 0b69 cf62 633f
00000600: ba0a 5b8d 7831 32bf 0df0 0f25 fba2 603f
00000610: 2932 f197 7f54 3ebf f8f1 bfb6 a332 753f
00000620: 6e96 446b d591 73bf 1dcd 8c48 ca0c 4d3f
00000630: 7717 f14c f100 67bf 9e85 152a 67e4 77bf
00000640: 2000 3338 109b 2cbf df44 5db0 d24e 60bf
00000650: 7c8d 431c fae7 7b3f 8f08 46c3 aa9f 813f
00000660: bf77 4b57 2e4b 70bf fd76 821a c3bc 81bf
00000670: 95ea 2f99 91e5 8abf 6d48 6372 6980 613f
00000680: ccc5 0e91 b174 2e3f 7e2c 90b7 44d4 5f3f
00000690: 2933 4acf 94fd 753f 7a14 d989 1da9 853f
000006a0: 8c46 a559 c602 93bf 8f2f 4fc7 0f8d 13bf
000006b0: ca39 fcb8 802f 1ebf 007c 2c3f 5ab2 62bf
000006c0: e7b8 5324 e8e2 5f3f 900e 8479 b758 73bf
000006d0: 8e0e a64a 0729 5dbf bff4 e0f0 800d 60bf
000006e0: 25f7 1f74 466e 593f c246 b225 caa7 4dbf
000006f0: 8f38 9cc4 99aa 82bf 365e bd71 9879 6e3f
00000700: 36ad 269f 417f 693f f81c 89f2 409c 7d3f
00000710: d3dc a0f3 cd09 47bf d164 e536 5326 533f
00000720: 965d aaaa fd2a 6d3f d948 abaf c89b 673f
00000730: 2cca 980d cfa2 6abf 51f1 4901 b6ae 52bf
00000740: c751 0c78 1e0e 4e3f bfc6 7701 3518 74bf
00000750: d85d 3d89 cbd4 5bbf c23c 8c60 6cb5 703f
00000760: d6a5 55a8 8695 653f d9dc c1f0 bec6 6abf
00000770: e038 cfc0 f083 75bf c4cd b5ad e531 6b3f
00000780: 646e 2e5c c5f6 6f3f f2b2 893f 08dc 6abf
00000790: 3116 afda e9b7 7cbf f1e7 86e3 85d8 75bf
000007a0: c5cf 41e2 535f 60bf 53bc afcf f5de 72bf
000007b0: 3033 4f67 6008 78bf 0d1e ef8a 16af 84bf
000007c0: 153a d84a 2709 7b3f 09fb 9308 270f 763f
000007d0: 96f7 0d5a 33a9 73bf f04a 5e22 abde 6fbf
000007e0: dd4e 5326 9122 6d3f 6a9d 6f9e 49dd 70bf
000007f0: 555d a1b2 3e40 7fbf bb49 d4f2 7177 5ebf
