save_param/best_w_0_M2_for_0_1.npy (npy, 16136 bytes, 1 tensors)

array f8 [2001]
0	0xbf590ed4f4cd8720	-0.0015294150973307954
1	0x3f4d3ccbf40d18e9	0.0008922572961658468
2	0xbf75b21e1c363724	-0.005296819322564681
3	0xbf3c173285a6f072	-0.00042862876366789933
4	0xbf87cd8c98605466	-0.011622522735743778
5	0xbf616211038a4fda	-0.0021219570447303772
6	0xbf98b55270f7dbab	-0.024129188675910445
7	0xbf5761132d6169c8	-0.0014269530561451405
8	0x3f72c87eadb024db	0.004585738027352816
9	0xbf6d1cbc3b3c6fbe	-0.0035537411112169506
10	0x3f659fddaa868765	0.002639706555968612
11	0xbf73b7a1f46d51a2	-0.004813797603521771
12	0x3f6a953214abc3c5	0.0032449701442307266
13	0x3f85345bec6b309a	0.010353773262430633
14	0xbf781e46b25ffbe0	-0.005888248595510043
15	0xbf8546dc56068524	-0.010389062285698865
16	0x3f8455242c5fa9c1	0.009928019146134727
17	0x3f639a3664bc3884	0.002392870175646657
18	0xbf6535c9db681978	-0.002589124919953164
19	0x3f6e713b8fe102ec	0.0037161029167979056
20	0xbf7e726e1d82e3b3	-0.007433347833448889
21	0x3f4a7aefad1fe7a4	0.0008081121725347262
22	0x3f702deb8d1472a2	0.003950042840440789
23	0xbf5a6508701ca4fc	-0.0016110021974305435
24	0x3f6e85e50167d195	0.0037259552730068515
25	0x3f7103be1188ed6f	0.004153959708271911
26	0xbf732ff610e57d5d	-0.004684411235160138
27	0x3f81111cb86a65c7	0.008333420160215333
28	0x3f8142b5bcb93078	0.008428020307427384
29	0x3f6657b712cfb0bc	0.0027273727086961335
30	0x3f7860291b1fd888	0.005951080865989174
31	0x3f72cfb1c304d780	0.004592604047777615
32	0x3f6812bad7443577	0.0029386185871149123
33	0xbf811e3204e31f28	-0.008358374380250291
34	0xbf292d12ca2bc922	-0.00019207815520123304
35	0x3f5a68c5db08265e	0.0016118938621069371
36	0xbf7d5fbf7bf89077	-0.007171390519520419
37	0x3f7520adc2c9a8de	0.0051581180128812115
38	0x3f4281eb52863a32	0.0005648039851154417
39	0xbf377b836d1fc5e4	-0.0003583141198069946
40	0xbf6dca9ad7cef4ea	-0.003636648586022963
41	0x3f49084293e5fd27	0.0007639241301119801
42	0xbf4e01decc4b8fb6	-0.0009157503014560673
43	0x3f28edbd36c7ad1d	0.00019019064656276225
44	0x3f807f99cbcc62d3	0.008055879146512101
45	0x3f2108aa45266cde	0.00012995794766088633
46	0xbf726dc60863e903	-0.004499219480061936
47	0x3f54334e2493ad26	0.001232935248760844
48	0xbf60600c188c6795	-0.0019989238975428127
49	0xbf4ff2f2e1d78991	-0.0009750066707819184
50	0xbf88a95cd29f2246	-0.012041783502256053
51	0x3fb5580a97b04ed3	0.08337465480172605
52	0xbf7febcf6808c367	-0.0077932454883445695
53	0xbf7974e38ef28e25	-0.006214989566760508
54	0x3f38fd49df12cbc6	0.0003813081121492558
55	0x3f739d346ec1a69e	0.004788594069489753
56	0xbf5317219c36654f	-0.001165182898012002
57	0xbf7f52cd05d63b7c	-0.007647324438393773
58	0xbf6cf00756a2a39b	-0.0035324233368396302
59	0x3f5cfc271ad99d7d	0.0017691022761939506
60	0xbf5239ca98620310	-0.0011124113530344738
61	0x3f527f78510aabad	0.0011290240255827741
62	0x3f802a69cf140e4f	0.007893396980313798
63	0x3f5a61a2ae31ab9d	0.00161019217264411
64	0x3f721e4dde9cc7d0	0.00442343156628229
65	0xbfb5974473d3b6c8	-0.084339407232359
66	0x3f6e2b89bfe6df47	0.0036828699514578653
67	0xbf6a7568f04820b3	-0.0032298135358851065
68	0x3f7f04f278f55f6d	0.007573077352695507
69	0x3f677d1d5b8dfb4f	0.002867276515132223
70	0xbf56f26bab1ec557	-0.0014005710076897182
71	0xbf61f72ae5cd867d	-0.002193053993708115
72	0x3f7788a4cf04c8c9	0.005745548042158607
73	0x3f7025c47f0d08bb	0.003942267955439667
74	0xbfa32722116206ee	-0.03740793668931795
75	0x3f5d9193a0dae0a2	0.0018047277148252401
76	0x3f7bf2fd4c37f980	0.006823529667143169
77	0xbf82083b39cd75f6	-0.008804762555594241
78	0xbf7bb7281958f374	-0.006766468655368441
79	0xbf7f0280f9b9b5dc	-0.007570747194774321
80	0xbf6cfc19338b7a1a	-0.00353817865503393
81	0x3f41c11e688dd5ef	0.0005418203810296211
82	0x3fa3a26cbcafc9ba	0.0383485775309
83	0x3f5c41ad08907a45	0.001724642732603991
84	0x3f500d320f6b861b	0.000979708563754739
85	0xbf6c697f9108837d	-0.0034682742628011063
86	0xbf983150feb6fd26	-0.023625627085263855
87	0x3f82e0daeb621299	0.009217939670869856
88	0x3f81c3e00c0c45fb	0.008674383514093434
89	0x3f432139702bae5e	0.0005837946376607386
90	0xbf7c92f56c01e1b5	-0.006976088218032241
91	0xbf5b13c493cf9861	-0.0016526622487105446
92	0xbf752b0fe8ebe993	-0.005168020389414346
93	0x3f84c204a7ce3a3d	0.01013568532087305
94	0x3fa54590d149ea7b	0.04154636912149542
95	0x3f62ba97683318ae	0.002286239353995154
96	0x3f6ba0a11d13f118	0.0033724924802510763
97	0x3f89431a6cb89f23	0.012335020487696696
98	0x3f5a2616691ae665	0.0015959948399725473
99	0x3f590afbff301a0b	0.0015284977823754066
100	0x3f75de5af86288b8	0.005339007713845038
101	0x3fb63a84d0e2bb0b	0.08683042621371954
102	0x3f70d040c8c77fed	0.004104855598114893
103	0x3f73109ef4b68892	0.0046545228209728
104	0x3f60b022b84a629c	0.002037113010669179
105	0xbf89d0ac83015374	-0.012605045078240208
106	0xbf7ae281e100ffdd	-0.0065636704821940535
107	0x3f90765af9b837c2	0.016076489917445043
108	0x3f70451e78ca296f	0.003972167044262383
109	0x3f72b8b42e2437f7	0.004570678547919363
110	0xbf528b5ba900b9a7	-0.0011318583601781314
111	0xbfb6868cfa55d0f4	-0.08799058067035387
112	0xbf80f5dce7cfae89	-0.008281446289365906
113	0x3f65a08500bdeccf	0.002640018245015342
114	0xbf6eaaac52727805	-0.003743492666742123
115	0xbf7c05c88b1ee971	-0.006841452954115077
116	0x3f57b1382e248619	0.0014460610041812148
117	0xbf674fa2ac65f2ae	-0.0028455903258744674
118	0xbf7f03e898a6276a	-0.007572086886634336
119	0xbf78aad209356e0f	-0.006022282078756116
120	0x3f830517811c93b8	0.009287055614160752
121	0x3f73f1de76902eae	0.004869336125021979
122	0xbf55de26ac997973	-0.0013347032239817396
123	0x3f7a7c63a5ed648e	0.006466283083534153
124	0x3f7e0152d88f302c	0.007325481049473875
125	0xbf5c863a65fdb377	-0.0017409868523501051
126	0x3f3e49a9b63cfc74	0.00046215432506708305
127	0xbf6650395cc09ff5	-0.0027238006932925837
128	0x3f759997b808e631	0.005273430492303486
129	0x3f7c5f764ee9030d	0.006926977292608394
130	0x3f5f8e373094dae3	0.0019259966814623656
131	0x3f204e2da1aa65de	0.00012440020585273345
132	0x3f5fd05d8da3bc14	0.0019417680364843858
133	0x3f4c4181d378a64b	0.0008623012462908945
134	0xbf615cd887658476	-0.002119467647546498
135	0x3f673509b92667d5	0.00283290766783482
136	0xbf593526342cf26b	-0.0015385506710138507
137	0x3f6638fa3ea47da9	0.0027127158729311662
138	0x3f6e61bd12ba56e2	0.0037087147555422287
139	0x3f6349aecc37133b	0.0023544706361654766
140	0x3f89ef7de03b7c0d	0.012663825421837438
141	0x3f65632950a6c998	0.002610760396430222
142	0xbf8329eac2270d30	-0.009357294130387744
143	0x3f75d51296f38562	0.0053301550062497555
144	0xbf76f724a5d307e7	-0.005606787829664817
145	0xbf4f151586cc8299	-0.0009485583410403119
146	0xbf81aa757792f74a	-0.008625905715571886
147	0x3f72a5953e9a5d99	0.004552443491454916
148	0xbf46150b132ad5ea	-0.0006738952709698907
149	0x3f2e05600b94adb5	0.00022904202868666087
150	0x3fa4797678617520	0.039989187426480166
151	0xbf88b708fa9e5c4c	-0.012067861698410585
152	0x3f6dfd82feebfdaa	0.0036609228621952887
153	0xbfb3de204f075b4c	-0.07760812692081948
154	0xbf9c500a2125cbcb	-0.02764907672230858
155	0xbf82b499dcb18de6	-0.009133531615765866
156	0x3f9874b84968705f	0.023882750969378082
157	0xbf7ae1c30be64f7a	-0.0065629595759623075
158	0x3fa54d9197b73501	0.04160742737767898
159	0xbfbec343d15e4e18	-0.12016700612576192
160	0x3f59f8487a05f824	0.0015850742130108031
161	0x3fba5335dfcac65c	0.10283219064401677
162	0x3f781d476532a40e	0.0058872975234090085
163	0xbf9ab2cb94c1131f	-0.02607267470763752
164	0x3f828966acdbb965	0.009051134252754786
165	0xbfc35bf69fbf566e	-0.15124399948279027
166	0x3fa526a595f66c28	0.041310476833324394
167	0xbf71e563554b1b31	-0.0043691520883786675
168	0xbfa6e998a25bd781	-0.044750947779831136
169	0x3f878bb36416232a	0.011496926776787559
170	0xbf8826e00a82d14b	-0.011792898484011124
171	0xbfa33ceb6c78e1f0	-0.03757415484546189
172	0xbf8e4397eab18865	-0.014777361726548041
173	0xbfa1e7518eb0a7ae	-0.034967945736141245
174	0x3f629ed792286fc8	0.0022730074281422687
175	0x3f77446b8140daaa	0.005680484715461157
176	0xbf9dc9d23527b0d8	-0.029090198988272004
177	0xbf2196f3f13565e2	-0.00013419845400157367
178	0xbf9c5fa51ae80090	-0.027708606497981736
179	0x3f7fb4ae7dd8c374	0.007740670783776039
180	0x3f9619cf325e59a1	0.02158282990384353
181	0x3f8258a2abeca81c	0.008958121177403959
182	0xbf95fd6db0ba8486	-0.021474565421730783
183	0x3f7bfe2b39a28093	0.0068341911775463724
184	0x3f86578234762839	0.01090909693336438
185	0xbfa158edf118336b	-0.03388160293625372
186	0x3f8a9aa76c6367ce	0.012990291590927596
187	0xbf8552e0c705e1fa	-0.010411983560275385
188	0x3f94901e7e2aab21	0.020081020784952778
189	0xbf6581a8ec9bc3f6	-0.002625303201846392
190	0xbf88a525daaa3b57	-0.012033744559884303
191	0x3f5cf48dac5b7ab7	0.0017672904518161567
192	0xbf878f6fcf18657b	-0.011504052646204901
193	0x3f863c1b4a753f99	0.010856831750657924
194	0xbf9e8090dd2a7e6a	-0.02978731489076695
195	0xbf7e5e23a57b89a9	-0.0074139969289909536
196	0x3f96cd7c8e5284bb	0.02226824396769154
197	0xbf7d7375458300ea	-0.00719018754188048
198	0xbf9788711e9bde5c	-0.022981421941010147
199	0xbf7ec83348eff730	-0.007515144664464832
200	0xbf7ba269d8dda05f	-0.006746686425550845
201	0x3fa9807092464118	0.04980804238869235
202	0xbf969c4983560c82	-0.022080563202973476
203	0xbfa82671c77416cc	-0.04716830787405754
204	0xbf5b6b004abdccf9	-0.0016734602786215287
205	0x3f6ac5842f39bae1	0.003268011257936507
206	0xbf6e06d488f21ce3	-0.003665366275132352
207	0x3fb23e5d029b4e77	0.07126408876075084
208	0xbf92158dde7532dc	-0.017660347655055073
209	0xbf8e669cb7a87309	-0.014844154696271443
210	0x3f9e327a01598bb4	0.0294894278835149
211	0xbf8e4c1aa1f2c835	-0.014793594424507098
212	0x3f85f43444cb3317	0.010719688748758878
213	0xbf87f0fe997140b7	-0.01169012933510803
214	0xbf90d7087b8f1eef	-0.01644528631348313
215	0xbf510438f5765ef6	-0.0010386043776175447
216	0x3f55aa338ddb8b49	0.0013223174532234919
217	0x3f8b132d347e2604	0.013220170177890907
218	0xbf708239fda0221c	-0.004030443693416898
219	0x3f9b95f180747377	0.02693917604948434
220	0x3f5c03fde819fb76	0.001709936099728996
221	0xbfa49a193f7409a4	-0.040238179202805285
222	0x3f9a6ea1ce013a98	0.025812652777228523
223	0xbf912e609a4b2705	-0.016778478066760822
224	0xbfb3e9f224b90015	-0.07778848072575813
225	0x3f968837700ee20f	0.022003999914632696
226	0x3f9df672e0aaf72b	0.029260439837108947
227	0xbf70a7dffdbcf3de	-0.004066348042951666
228	0xbf9a48314150238c	-0.025666017161742924
229	0x3f48adf873ec448b	0.0007531607769541022
230	0xbfb1657dcb973653	-0.06795488567805678
231	0x3f8f9bee1c1c0a39	0.01543413184436303
232	0xbf82629fa319ac18	-0.008977172055173496
233	0x3f8c405b68612987	0.013794626353178753
234	0xbf80b4684bc2a943	-0.008156599819206028
235	0xbf8918a8cd182d6e	-0.012254065283761686
236	0x3f51c02d164934bb	0.001083416014029211
237	0xbf4918c8bc8b33e5	-0.0007658939512907829
238	0x3f8b9de6cb3b708f	0.013484767033723947
239	0xbf6b1a3f24f1e4ab	-0.003308413819067176
240	0x3f9ba35a18a29d24	0.026990325692762288
241	0x3f7ca4edf015283d	0.006993226475353662
242	0x3f4b29fbdeef13a4	0.0008289794767440861
243	0xbf9554f6724945ec	-0.020831919408299912
244	0xbf72e7fea6754629	-0.00461577866310984
245	0x3f8b9411b76d3a91	0.013466013345945245
246	0xbf771fc672b734e0	-0.0056455375556201115
247	0x3f81e4ac5dd9e330	0.008736940969571089
248	0x3f415910c282a52b	0.0005294162592878506
249	0x3f77c744cd68faa6	0.005805271872815132
250	0xbf531c5b18fafa83	-0.001166428530197245
251	0x3fa2a85ed9051c21	0.036440814964002984
252	0xbf85f3d96876688b	-0.01071901178402281
253	0xbfa083bab3e93b67	-0.03225501485996212
254	0x3f656c0aa18c098f	0.0026149947774467062
255	0xbf9d601606d5133a	-0.0286868516607399
