save_param/best_w_1.npy (npy, 13080 bytes, 1 tensors)

array f8 [1619]
0.0025749682477419905 -0.0032905286882561825 -0.003343249012128323 -0.012694957850640514 0.00278100583145498 0.014144773895866302 -0.01519682348912956 -0.008555749910166674
0.0004841739785359806 -0.008773781172050155 -0.00021899076143972623 -0.0066505445790301775 0.010552018758078026 -0.0008749899746598555 0.0036837064991934346 0.008810336437331276
-0.010176409540630437 -0.0006397364447697745 0.04950951699921982 0.027601095099636146 -0.0025288613042095762 0.014574834474508979 -0.002549755984783089 0.0024625852221761167
-0.005851916026910655 -0.017410780806497175 0.003738383245344138 -0.00033352939688549306 0.0039446548281464695 0.019468327798869207 0.0005848477247349171 0.0025121821439221086
-0.002339818724422741 0.021235325307522958 0.012090702268663541 -0.01083376362515188 -0.0032247770673973918 0.011980528544239194 0.0003414246211459481 0.002944658055964377
-0.0019595960751580617 0.01165139506520114 0.012468529701496485 -0.006017176316101379 0.007223702667180022 -0.002981860000214212 -0.013156769624347423 0.003913899668280508
0.0028838295557412105 -0.004411150744345504 0.011138634402786837 -0.010009903511528861 -0.0014655286331421158 0.005421609078014195 0.027627959941846695 0.0019673511325656572
-0.0008544372098743996 -0.004447767540058758 0.0066445224566593925 -0.0016686902584032398 0.005571828400472814 0.004459382519106882 0.0033589292152849527 0.0014286104805021071
-0.0016768646254892543 -0.006688960213047085 0.1411395161104817 -0.013664079843358152 0.0019754911886545887 -0.0023470784872800395 0.0017336590539537673 -0.0003515933789720299
0.00444875986968462 -0.0017199053086653909 0.0048368153551691636 -0.004214514757976426 0.007725889720018978 -0.008354513689915823 -0.009202455567113963 -0.003520963984076929
-0.0015730998025336779 0.00048564441215141274 -0.011778418084514799 0.0003146950379168178 0.007672675947350666 -0.14862646896426832 -0.0015372512443071519 0.0018986075311488687
0.0006280563992653493 -0.0007710962025022402 -0.008316666679969938 0.006415978865794027 0.012215297409117573 -0.024980841517703013 -0.00854386273633377 0.006799972003187148
0.0026464449574385915 0.010740676231470946 0.033358799452586615 -0.00592214010094424 -0.005402504199510741 -0.005229481770659181 0.019131686822223683 -0.018732431046374474
-0.003529442159398734 0.0015292162691895306 -0.004303145224973037 -0.05051880199532537 0.0003823300112199074 0.0005242185091916534 -0.006643145289540244 -0.03696347489104707
-0.00390635073701914 0.008064473576190185 -0.005054903575887399 0.001769921100653031 -0.001133489545684389 0.0007651541732661475 0.0011061327200048185 0.0012065980505835065
-0.019675283150884952 -0.004746842918737088 0.004071142513116368 -0.0006216142757651174 -0.039012554941497996 -0.014480425035464983 -0.0011390538303656347 -0.007063771002083718
-0.026190800116145285 0.0017368217815647317 0.0010423328511724957 -0.00538855122708666 0.014242102529821369 0.002267546441692976 0.0037594067074147052 0.009182174145342175
0.14772845270332224 0.009350461796942107 -0.0026804357947885927 0.0011491707216300915 0.006425265144481564 -0.005740813952305722 -1.5498555368480214e-05 0.00023060235214215737
-0.029301306283753013 0.019765143110615176 -0.0009317518696119095 0.009108140216466162 0.004956793162862541 0.0017088279193030681 -0.015263408494480315 -0.14911426342695297
0.009700868933987089 -0.009723056285506368 -0.02184155287722015 0.004469102512902488 0.020673132138031697 0.00478234984068366 -0.0034579540447294502 0.017835804287102523
0.00845302000545136 0.019618574115470556 0.0027531404834629145 -0.005459822868060562 -0.003730067379295548 0.02114713080469713 0.002440150932317524 0.0005169707629879072
0.0019573574887888747 0.012431521394400903 -0.0010514728338620592 0.0022173809286782356 -0.001905695107331109 -0.004469875958993356 0.016420540149391576 -5.534003193051304e-05
0.005200446941984447 -0.0034485714943080694 0.019081811254841402 0.004690071863590195 0.0030756097339966764 -0.002214436932421486 0.008896377633286634 -0.0008684510265590741
-0.00026153212220214313 -0.0004543759399756388 0.005670401196281938 0.008745579625633179 0.00202432245662495 -0.0010378727013380645 0.005185453691022939 -0.0037273435569423322
0.0008604868380291935 -0.007518698511274092 -0.010136868515815804 -0.007702219270953934 0.0022518868929499117 0.002031912432529608 -0.008097827142259442 0.0032656717833138903
0.011262353186398684 -0.02241291764224974 -0.010963195233182895 0.005331715522702373 5.955643361054176e-05 0.01061175586703141 0.03490270866884784 0.03630335016861334
0.006032343889090838 0.0014066326641147804 -0.022996585801238638 0.014779204019839797 0.0006978657148458404 0.0002725450469768614 -0.006500894157889586 0.008206483958780523
0.04371510541904127 0.006014081958022477 -0.01519194207716342 0.00754571024341674 0.015767527105517223 0.006935089236041807 -0.004912618405887636 -0.009487725524355957
-0.006062384083997566 0.0698656132358799 0.000633555345853942 0.003738300568293647 0.012892873124972054 -0.03152851910389278 -0.06831254456383799 -0.03193867096758745
-0.0043283746155732 -0.002618150144406003 -0.0041594186740494445 -0.02413909636382509 -0.052550702742907816 0.0012972126103432157 -0.013203507843450217 0.006250062564182004
-0.010912714197476792 0.01158675806125005 -0.015152517848888528 0.005217530414042236 0.002467033381453566 -0.00465163124512332 -0.022712019371060838 0.016208590016529002
0.012075055804447786 -0.027784777517573214 -0.017148429338947148 0.0876672624484468 0.14010816433560339 -0.2497591031235384 -0.004312144580108623 0.017758255677113286
00000000: 607b 318d 1918 653f f194 4823 bdf4 6abf
00000010: ca57 6c25 4d63 6bbf 633e 5766 d0ff 89bf
00000020: a61f 1323 31c8 663f b323 566a eff7 8c3f
00000030: 8b75 1c1f 831f 8fbf e592 7450 ad85 81bf
00000040: 2052 4467 17bb 3f3f add9 91f9 fcf7 81bf
00000050: 0831 2851 1cb4 2cbf 2efb 7af7 993d 7bbf
00000060: 5723 c8fb 4b9c 853f 5cb8 a9a9 f2ab 4cbf
00000070: a7ab 25de 4a2d 6e3f ebb6 eb56 270b 823f
00000080: 6678 5791 5ed7 84bf dc43 de8d 7ff6 44bf
00000090: 746e b4b8 4f59 a93f be9a 2523 7643 9c3f
000000a0: d45b 2013 68b7 64bf a610 4d2b 69d9 8d3f
000000b0: a055 28d2 39e3 64bf e680 c55f 6a2c 643f
000000c0: 42b6 45bf 2df8 77bf 849c a5b8 21d4 91bf
000000d0: eed7 ea38 f59f 6e3f cea9 14da b1db 35bf
000000e0: abc1 b137 4528 703f 82d8 d05c 81ef 933f
000000f0: 3e85 e9ec 0e2a 433f d8ac ca84 6d94 643f
00000100: 8881 cc9c f42a 63bf eae8 dc8e b6be 953f
00000110: 5efc a296 02c3 883f 0573 b323 0330 86bf
00000120: a1d7 5201 d96a 6abf 9d58 4a52 3f89 883f
00000130: 1380 f594 2760 363f 656d 8b41 651f 683f
00000140: 112d cc21 920d 60bf 2501 10c6 afdc 873f
00000150: c486 60ba 1989 893f bfe8 de77 77a5 78bf
00000160: 3593 62eb 9996 7d3f 6d57 d4e5 696d 68bf
00000170: 4285 0fba eff1 8abf 9b91 3371 0508 703f
00000180: 47f8 2134 d49f 673f 7f7d f442 6d11 72bf
00000190: 7e47 db33 dacf 863f 00bc be81 1280 84bf
000001a0: 809e 3e63 df02 58bf 3a85 e81a f834 763f
000001b0: f128 9f01 814a 9c3f 3c93 c598 d51d 603f
000001c0: a90e bbef 89ff 4bbf 3607 ff81 d237 72bf
000001d0: 22da 616a 4937 7b3f 6e56 9185 fe56 5bbf
000001e0: b6ad 244c 7cd2 763f 4258 4761 0044 723f
000001f0: 5fa2 2264 2f84 6b3f 80fb b7d2 0668 573f
00000200: b0a0 7bae 4779 5bbf ed9e bf15 e265 7bbf
00000210: 8c13 ef12 dc10 c23f 3d0e 75c0 e9fb 8bbf
00000220: 02d5 8fc1 e72e 603f 6327 022b 2e3a 63bf
00000230: b1f6 1a3c 7e67 5c3f e1c5 6d10 c20a 37bf
00000240: 796c 5ee2 dc38 723f f847 6343 ce2d 5cbf
00000250: bd9f 46bc c4cf 733f 1742 dd30 3d43 71bf
00000260: 0437 e1ba 2ea5 7f3f 4ecf 93d8 2b1c 81bf
00000270: ff11 a1ad bcd8 82bf 9723 2f25 ffd7 6cbf
00000280: 176d 220d 0fc6 59bf a8fa 1fde c2d3 3f3f
00000290: 61d9 c583 481f 88bf 6598 64e5 b49f 343f
000002a0: 074f 4444 626d 7f3f 3bc0 c22f 3106 c3bf
000002b0: 1572 7bf4 b22f 59bf 7333 4550 561b 5f3f
000002c0: a918 f2d8 8494 443f 267f 647c 6c44 49bf
000002d0: 9eb6 371b 5408 81bf f516 6836 a447 7a3f
000002e0: d888 1077 5504 893f 2d60 61e5 9394 99bf
000002f0: b7c4 45d8 717f 81bf 72e3 e095 49da 7b3f
00000300: f021 5f51 ffad 653f d96f 3529 35ff 853f
00000310: 8688 5d91 6714 a13f 5ae8 e460 d041 78bf
00000320: 1d88 a7ad ef20 76bf 7d51 e152 826b 75bf
00000330: e703 e0c4 4197 933f e600 e02a 982e 93bf
00000340: b74b bad4 c6e9 6cbf 7beb 5677 ff0d 593f
00000350: b3dd 2dc0 2ca0 71bf e758 ceb4 99dd a9bf
00000360: 85e8 fbe4 6e0e 393f fa01 2dad 762d 413f
00000370: 82ad 2dbc d735 7bbf c96c 9b67 e0ec a2bf
00000380: dc61 980a 1b00 70bf aa4e 2752 1b84 803f
00000390: 4798 af58 73b4 74bf ad80 9a4f 96ff 5c3f
000003a0: 4552 dc21 3392 52bf 3713 4613 9412 493f
000003b0: 0e90 e0f6 741f 523f 63c7 aaca d6c4 533f
000003c0: 9ebb b0e6 c125 94bf a10a 86f1 6c71 73bf
000003d0: 0f13 38ff e6ac 703f b5ff 187e 7a5e 44bf
000003e0: acda 361f 74f9 a3bf 400f adbf e9a7 8dbf
000003f0: 6f96 c9bc 89a9 52bf bfce 0b97 e6ee 7cbf
00000400: c3d5 d1d7 c2d1 9abf 8c1f 0d30 c274 5c3f
00000410: ea21 7860 dc13 513f 50c6 b034 4e12 76bf
00000420: f521 bca4 f62a 8d3f 903b e5b9 6393 623f
00000430: 05ee 8a1b 0ccc 6e3f 038b 488d 1ace 823f
00000440: 7054 8614 c4e8 c23f 4481 f6bc 5526 833f
00000450: e410 7c02 48f5 65bf 75d9 aeaa f8d3 523f
00000460: cf6b 9efa 6051 7a3f 6557 d702 ae83 77bf
00000470: bc44 769d 5c40 f0be c145 251f bb39 2e3f
00000480: b60c e060 2901 9ebf c21c 0b4d 503d 943f
00000490: ab8f 6be7 1988 4ebf 9e59 dbe2 49a7 823f
000004a0: 5dc4 7008 934d 743f 6416 c901 58ff 5b3f
000004b0: 9b68 7902 6c42 8fbf 1b98 641a 2d16 c3bf
000004c0: 2399 8396 0cde 833f 6b7a 1b86 aee9 83bf
000004d0: 6ac0 34cd a15d 96bf 318c 2a92 314e 723f
000004e0: 2543 c169 562b 953f 48ca 9e42 a896 733f
000004f0: b4d7 0ff1 da53 6cbf 01a0 7190 8c43 923f
00000500: 0c89 ce23 d14f 813f 6a61 e138 e416 943f
00000510: 6bfc ce0a c18d 663f 767a 900a 0a5d 76bf
00000520: 8c8c fdac 848e 6ebf 4875 d7ec 97a7 953f
00000530: f091 730e 5efd 633f 3d0e 9042 aaf0 403f
00000540: da68 d44c e008 603f 21b8 a08e b275 893f
00000550: 7acd c75b 323a 51bf 7e4b 4952 2f2a 623f
00000560: a468 608a 1039 5fbf d112 fa30 014f 72bf
00000570: 8b79 b2cb 8bd0 903f 0677 b604 9d03 0dbf
00000580: 3181 a558 104d 753f acac 26b9 2d40 6cbf
00000590: 78e6 26ad 2e8a 933f a6f5 5194 e535 733f
000005a0: 01f9 2067 0532 693f bd91 85c6 0224 62bf
000005b0: 7314 e797 4338 823f c487 ed60 1875 4cbf
000005c0: caef 65e9 c723 31bf 7e86 62cd 29c7 3dbf
000005d0: 8d78 17bb d839 773f 4b32 d0d3 33e9 813f
000005e0: b4ab edd7 4f95 603f 7870 d153 2701 51bf
000005f0: df2d 49a0 573d 753f 9d5e b255 ce88 6ebf
00000600: f00b fb69 4932 4c3f 1b35 6e43 edcb 7ebf
00000610: e201 1376 a3c2 84bf fe81 01be 5c8c 7fbf
00000620: 7483 e791 8c72 623f a40b 46ae 3aa5 603f
00000630: 2813 f5f5 9795 80bf 8f1d 4830 9cc0 6a3f
00000640: 0486 e474 b710 873f 6328 2071 69f3 96bf
00000650: 3eb4 e327 df73 86bf e547 d37c b5d6 753f
00000660: cdf9 1b7a 8739 0f3f ab5e 37c3 9dbb 853f
00000670: 848d 8c90 c4de a13f 753a 6b4b 5a96 a23f
00000680: 30c8 8cfb 5eb5 783f f909 8d52 d80b 573f
00000690: fe70 bebf 6a8c 97bf 86b3 682f 8f44 8e3f
000006a0: f9b2 0c36 1fde 463f ad6a 3e10 8cdc 313f
000006b0: 93a6 d87c aea0 7abf f5b0 bea1 8fce 803f
000006c0: 0761 3b88 d361 a63f a6e5 33d5 38a2 783f
000006d0: abb9 12f3 f31c 8fbf 5d71 872b 40e8 7e3f
000006e0: 6428 07d5 5c25 903f 0513 6bd7 f767 7c3f
000006f0: ff98 41f6 401f 74bf 8469 b9f6 4c6e 83bf
00000700: 4464 06d6 ded4 78bf ff8c f67b b6e2 b13f
00000710: 3193 cdbe a5c2 443f 5dbc ded5 c89f 6e3f
00000720: 9dc7 6223 9467 8a3f 6393 e28c 8124 a0bf
00000730: f3e7 ce50 ee7c b1bf f725 91f6 435a a0bf
00000740: 6117 b336 a1ba 71bf c535 e1a7 a872 65bf
00000750: f67e ce72 7709 71bf cb1f c055 ebb7 98bf
00000760: 2b41 53fb ece7 aabf 0f48 316f e740 553f
00000770: e970 0ad3 700a 8bbf 5c54 fa64 aa99 793f
00000780: 9ac6 b5b4 6759 86bf e892 8457 ccba 873f
00000790: 957d e784 4808 8fbf d83a e827 fa5e 753f
000007a0: b6a1 2076 be35 643f 573a 22c1 960d 73bf
000007b0: 4505 b3d1 d141 97bf 4a1c 2410 fc98 903f
000007c0: 7f46 388e ceba 883f b7f6 0edb 9c73 9cbf
000007d0: ea11 c19c 5b8f 91bf 885b 2599 5c71 b63f
000007e0: 5dac dc77 10ef c13f 279e e535 1bf8 cfbf
000007f0: e6b0 277f 9ca9 71bf 5905 785d 382f 923f
