save_param/last_w_2.npy (npy, 29824 bytes, 1 tensors)

array f8 [3712]
0.0015525656363182914 -0.00012193298014642435 0.005634755717473455 0.0036050262358900747 0.00558120485338083 0.017678777505184963 -0.0022822811051028775 -0.00258571484108908
9.379570561083321e-05 0.0018231565053268481 0.00964680721500785 0.005709693350824689 -0.014446087047176155 0.004658524448288498 -0.013361794626291985 -0.0016562760607576256
0.008127492071482882 -0.0034621288194622633 0.009372520665648061 0.008106113154582427 -0.0025550031061301005 0.008939779977169705 0.008584247123397781 0.0023385360560062725
0.005637954804344403 -0.0009218500913423174 0.008619977767636747 -0.008492962408515131 0.003487215269064877 0.0009514934453806222 -0.03262590009225516 -0.0027394374104931646
-0.0011828955090564728 -0.002195515498725311 0.008259741954116152 0.005675772981791627 0.0013273219973228753 -0.0006126923153091902 0.012116757322496284 0.0003327044748735645
0.001128061495977863 0.0003986223649931257 0.0023688523919491566 -0.007684006041989227 -0.006249241504057335 -0.0007960378009789187 0.0016065115122129543 0.002506219670708575
-0.000568507379081694 0.0010329580405477178 -0.0008601130091935597 -0.009138593980835127 0.007609962379959204 0.003087406937274402 -0.0004491336932041439 0.00787104785104068
-0.03613668611990448 -0.0009218492541917871 0.0011557172760836597 -0.0013811774997819508 0.005790505472432553 0.001579919477203712 -0.004132066216580277 0.0005974325310818041
0.015885450223583012 0.006166973428823 0.0025570965016678093 -0.0023920171677387345 -0.006267287171634771 -0.0009964861371564518 0.0002022883206284167 -0.007295446880090686
-0.0026094219222659127 -0.0018434092052452414 0.003088511532678499 -0.003631689138049295 -0.009048097597010512 -0.0032808759372313866 0.0027851805706240363 -0.001294109629904073
0.011034006485188272 0.10620514547556176 0.012324262965725944 -3.991515130125772e-05 0.0009502230353366292 0.0005489368847189723 0.0016952480007032327 -0.001819433598170427
-0.00039199982618615917 -0.0002814954404436409 0.00755077226742158 -0.0032521705730331734 0.007718496321769931 0.004844093462007853 0.0008364860486553935 0.003396164868532811
-0.00404454398409479 -0.00042047295603586486 0.0009854056793469543 -0.007736655731040884 -0.00595680127142589 -0.00253092892240895 0.0004484373374098535 -0.009172045867952647
-0.015101549089414615 -0.10114222404283915 0.0006778197690983866 0.0013387918683552455 0.0009635694119689355 -0.0022876093521269052 -0.004141728174719157 -0.003588700485119159
0.0057939135455726985 0.00595054176324206 -0.005803774156253325 -0.007908975081742448 -0.0034533379529355056 0.0033601598295699454 -0.0028683869237922615 0.0017883548371021864
0.004938400900024404 0.005542545225147595 0.004399029205516651 0.000513632850917259 0.010748692937731782 0.005104462148602749 -0.0012769594080849888 -0.010490097324955434
-0.033187093916408464 -0.0020689962577060354 -0.00238341903203617 0.0005798211655533775 -0.04208421517867263 0.004936939151515867 -0.002792794236685296 -0.009409645276515218
-0.04282903108172239 0.0048854500443283955 -0.002318773702653562 0.004776293109760133 0.008009709305959331 -0.01893294948920371 0.002478892144580457 0.009051592819004863
-0.003976079078142761 0.0005957818707602885 0.0128202404265119 -0.005909054668491434 0.009149816934181338 -0.0035210983248217757 -0.033344148634397976 0.002058080443772177
-0.009850156210225192 -0.00019219151267572103 -0.04714414143830812 -0.015099242252255203 -0.017687236811384763 0.005923109529254386 -0.04395629014753139 0.002396382356039888
-0.0015916553101768599 0.00505253609024478 0.002428191492898526 -0.02502228454053023 -0.00640600663508532 -0.0035049496532110766 0.0013697604461556027 0.005022703040193165
0.0033494170702752105 0.004962707460686188 0.0034033265686898542 0.10914060587456909 -0.013876509829267405 -0.008450023737365768 -0.0067822290380164145 0.01517807440428754
-0.004155058155843008 -0.0016594723957760054 -0.0012528698010729046 0.01268279630851264 -0.0025842854398070154 0.0077452512601969906 -0.008459786647959785 -0.0034180916713835554
0.007179299561742998 0.005317013392289059 -0.016440037399129196 -0.006183002818278416 -0.0009243879170453129 0.0015621044297408678 0.007884801492485626 -0.0971171122147984
0.006415643051088966 -0.002688644173370964 0.020727737738859473 0.007619743966774421 -0.0031666934492081467 0.011615903080718271 -0.007199764330423262 0.0012452030587777282
-0.012794267257685489 0.004898338952675872 0.002160978277427046 0.011096724123545565 -0.003088293200883471 -0.005724001415764415 0.009972993338034964 0.0008598943187272416
0.0007574436723539568 -0.00045629881308863467 0.02117950998660594 -0.004839714888460172 0.007135280640012581 0.0009905374282876802 -0.004096856445487197 -0.006316586914376354
-0.006231671265270261 0.0022741025859489856 0.0024431531074366433 -0.0007605741699925869 -0.0028766359505733234 0.0015468029061779347 -0.010157080538369834 -0.004004308271563439
1.1975227330820602e-05 -0.002640839819880086 0.0034194172393833054 0.00030788293597670466 0.016449928950920484 0.012166788973698337 -0.007887255872020178 0.0010581860257308313
-0.00045985503132116567 -0.0017617142869903839 0.0007227859888761868 -0.0021959271233544194 -0.001164729232606105 -0.004732828645855269 -0.002781020990239715 -0.0007227891482878485
-0.004257590110705093 0.0011375605609490404 0.0015858684209110617 -0.005112180408209909 0.0015442265220803712 -0.003173128284755716 0.010183198895468227 0.00015516993053212304
0.0047946705019325745 0.002152795605736195 -0.0038367644963567997 0.005030110384421005 -0.0017726761845801122 0.002759597593756128 0.0008162568638855695 -0.011772250031806122
00000000: 2d1d 81a8 ee6f 593f 17e7 eba5 c8f6 1fbf
00000010: 39a1 7038 7814 773f ce8e 19b9 4988 6d3f
00000020: 4fac 1445 51dc 763f 3a43 dfac 621a 923f
00000030: 1640 9d56 4ab2 62bf 497e bc15 a32e 65bf
00000040: ad79 d1f3 8596 183f 5b30 3764 dfde 5d3f
00000050: 2f84 fe8b b4c1 833f de45 6423 0c63 773f
00000060: 24e0 61fb e895 8dbf 6dc0 7222 d114 733f
00000070: d780 7cb7 6d5d 8bbf dd0a e7e0 ec22 5bbf
00000080: 7c05 2a85 25a5 803f cf6d bb41 9c5c 6cbf
00000090: 719b eb6d e631 833f 3f40 2c17 f099 803f
000000a0: f633 06d9 3aee 64bf da41 15f5 044f 823f
000000b0: 4007 3f25 9e94 813f a3ac 31fc 4328 633f
000000c0: 2709 04f8 d217 773f bfa5 3fff 0935 4ebf
000000d0: 687f d5d4 59a7 813f 306a 531e c264 81bf
000000e0: 91a2 1c71 3891 6c3f 1e6d 799d b42d 4f3f
000000f0: 6c2f cc8b 57b4 a0bf a0db cc42 0471 66bf
00000100: dbb3 a961 6c61 53bf ebf2 7968 54fc 61bf
00000110: fad6 87cc 7bea 803f 4d8c 61b5 7a3f 773f
00000120: dbff 7624 31bf 553f e239 77ba a213 44bf
00000130: 7f32 78a3 abd0 883f 4e91 bcd6 dacd 353f
00000140: a223 ebce 6e7b 523f 63c9 6605 c61f 3a3f
00000150: dcdb adf1 d767 633f 5317 71aa 4379 7fbf
00000160: dadc 27fe cd98 79bf e6ab 2929 a615 4abf
00000170: b162 f599 3252 5a3f 7e8f b670 ec87 643f
00000180: 8e6d e34c fca0 42bf 3d90 2540 8aec 503f
00000190: 0da5 679f 262f 4cbf ab9d 3b52 41b7 82bf
000001a0: c43f bbb8 9f2b 7f3f 2ab4 66fa c24a 693f
000001b0: 799b 1a86 366f 3dbf 1301 d828 b21e 803f
000001c0: cd40 24fa 8180 a2bf 372f 0533 0835 4ebf
000001d0: 0f70 def9 6def 523f 071a 420c 14a1 56bf
000001e0: 103e 1afa c8b7 773f 1ba8 089f a9e2 593f
000001f0: 27ed 3d14 c9ec 70bf 3438 5e97 a093 433f
00000200: 4125 c584 4644 903f 03d3 1253 8a42 793f
00000210: 17bb 1dbb 9ef2 643f fd97 3870 6c98 63bf
00000220: 3f2e fd16 baab 79bf a526 aed7 9053 50bf
00000230: 4f71 6371 ab83 2a3f a9b5 279c d4e1 7dbf
00000240: 56c2 29ba 5a60 65bf 3fa7 fa8f d133 5ebf
00000250: bc68 d600 144d 693f 9118 7842 34c0 6dbf
00000260: 3652 291a cf87 82bf 33d8 48db 7ee0 6abf
00000270: e96b db6e f2d0 663f 3792 6ca2 e333 55bf
00000280: c55c fb47 ff98 863f 9405 7caa 4230 bb3f
00000290: afad 1493 763d 893f 0064 d727 52ed 04bf
000002a0: 3da7 2a6e 0c23 4f3f 47f2 d4fb d0fc 413f
000002b0: a12e 2fae 62c6 5b3f c8e6 49f3 41cf 5dbf
000002c0: 9254 fa6e aab0 39bf 9907 efb5 b572 32bf
000002d0: 4e7f 2bff 8eed 7e3f fcf2 11c8 4ba4 6abf
000002e0: 9bb7 6b14 6e9d 7f3f 6c2e f86f 66d7 733f
000002f0: 6408 7c1c f468 4b3f 467a 5921 46d2 6b3f
00000300: e104 3902 0391 70bf dfa7 5398 5d8e 3bbf
00000310: db2e a14a 1725 503f 8a11 86b5 78b0 7fbf
00000320: bc89 64aa 2866 78bf 516c 681e bebb 64bf
00000330: 8aa0 cfb2 8763 3d3f 5278 5228 cbc8 82bf
00000340: 75ee a99b 8fed 8ebf 1a3a 82f0 74e4 b9bf
00000350: cc7e d4de f635 463f 566d 9bd2 4cef 553f
00000360: 3f87 508e 0193 4f3f fc1f 4feb 76bd 62bf
00000370: 140f f3b0 eaf6 70bf edcd ffe6 0c66 6dbf
00000380: 13fa 1ad3 5bbb 773f 8405 4464 985f 783f
00000390: fd94 1cc3 b2c5 77bf ea54 91aa 9432 80bf
000003a0: 7891 3cb2 2c4a 6cbf 0889 7912 c486 6b3f
000003b0: 7772 f580 717f 67bf 86ee 7e62 e74c 5d3f
000003c0: 0724 c3e5 493a 743f d562 a8a7 c7b3 763f
000003d0: b844 2669 b704 723f b5e1 fe25 aad4 403f
000003e0: 5e70 2325 6903 863f 24e6 de9f 6ae8 743f
000003f0: 38cb 58b9 f4eb 54bf c452 8a07 d57b 85bf
00000400: da5e 0a16 e6fd a0bf b487 65e8 fff2 60bf
00000410: b0c3 7259 6486 63bf be3d c778 e4ff 423f
00000420: 3b8e bdef 0f8c a5bf ac6d 2b83 c138 743f
00000430: bc14 27fd e9e0 66bf 3e35 d635 5d45 83bf
00000440: 8b77 a1cf afed a5bf 8986 aa02 c402 743f
00000450: 2df6 0727 d2fe 62bf 0190 3d6b 4e90 733f
00000460: 3810 28fc 6467 803f 90e6 7dbb 2863 93bf
00000470: 6400 1f16 9d4e 643f e11d 1339 a489 823f
00000480: 5dff b599 3849 70bf 0f71 42d3 c785 433f
00000490: 95ab de8a 7f41 8a3f e9b9 d2c8 1734 78bf
000004a0: aa3b f9a3 23bd 823f 74e4 d544 47d8 6cbf
000004b0: a59f cbf7 7b12 a1bf c36d 5a86 1bdc 603f
000004c0: ad6b 4496 512c 84bf c6c4 e485 e030 29bf
000004d0: 4ddf 59e3 4623 a8bf b1b0 57fd 59ec 8ebf
000004e0: 8961 a55e 9a1c 92bf b018 809b d442 783f
000004f0: 7936 4659 7081 a6bf f104 22fb 93a1 633f
00000500: 1cdb 3ce0 e213 5abf 60b6 4fd4 f7b1 743f
00000510: 0514 9d61 49e4 633f 9e54 1717 719f 99bf
00000520: 2c2f ee4f 2f3d 7abf 8233 4f84 69b6 6cbf
00000530: de34 7414 3171 563f 98ee b894 af92 743f
00000540: a23f e198 3c70 6b3f 1967 e4a3 c653 743f
00000550: 7997 ec09 4be1 6b3f 389b e584 a3f0 bb3f
00000560: dbd1 319f 496b 8cbf 29bc d1fc 3e4e 81bf
00000570: 15a0 98be aec7 7bbf 841b 76a9 ae15 8f3f
00000580: 50f5 46ee e404 71bf c541 c8ea 5430 5bbf
00000590: b99e 97b4 ea86 54bf b764 ef1a 70f9 893f
000005a0: bfeb 51ae a32b 65bf 0822 ca0d 7cb9 7f3f
000005b0: cb7c df57 5d53 81bf 5ab2 2ffe 4100 6cbf
000005c0: eec6 368d 0a68 7d3f f1cc 1dea 4ac7 753f
000005d0: d1a8 e53b a8d5 90bf 674d 542e 5953 79bf
000005e0: 7bf8 aeef 534a 4ebf 183b 13dc f097 593f
000005f0: 4c8c 5d24 e825 803f 8c32 d8c4 aadc b8bf
00000600: 6152 6511 4a47 7a3f a85a 72d9 7e06 66bf
00000610: 3978 d5ee a639 953f de4f 4272 e135 7f3f
00000620: cd34 a099 09f1 69bf 4df3 c21e 14ca 873f
00000630: 97c1 6805 807d 7dbf ea5f 849a c266 543f
00000640: 7497 957b e133 8abf 7115 b4d9 4710 743f
00000650: 5de0 ec60 e6b3 613f 807c a019 e1b9 863f
00000660: 464b 8bc9 9e4c 69bf d0a0 20ee 0c72 77bf
00000670: 5a37 d781 b86c 843f 18b0 0cfd 502d 4c3f
00000680: 5cbb 91e6 e5d1 483f 3239 bb7a 6ce7 3dbf
00000690: 0d7c f3da 14b0 953f acb8 af12 cfd2 73bf
000006a0: 9338 f24f e239 7d3f b493 0977 9d3a 503f
000006b0: 8e46 3287 ddc7 70bf b36e 83e3 6bdf 79bf
000006c0: 9346 8a84 6186 79bf 4434 8087 23a1 623f
000006d0: 7909 42d6 a903 643f e9b1 d897 28ec 48bf
000006e0: 2f15 912a be90 67bf 301a 4ef9 c257 593f
000006f0: 408f e145 3ccd 84bf b389 1c51 d266 70bf
00000700: 7385 41b6 261d e93e 3faa 2115 3ea2 65bf
00000710: cf6d dda6 0903 6c3f bea6 1924 6b2d 343f
00000720: 2881 760b 40d8 903f a539 eac5 e6ea 883f
00000730: ea3e 3490 3127 80bf 2708 e997 5a56 513f
00000740: 3167 0752 1623 3ebf b05c d74f 2add 5cbf
00000750: 48db 9417 2baf 473f 750f bc65 31fd 61bf
00000760: 8381 9d7d 3a15 53bf 333a 0604 bb62 73bf
00000770: 3772 7b46 39c8 66bf be84 7ce0 31af 47bf
00000780: c463 9024 6870 71bf e205 045a 46a3 523f
00000790: c786 3a40 9dfb 593f e5d8 a17a 82f0 74bf
000007a0: 30a3 3c9a f44c 593f 3f71 b046 88fe 69bf
000007b0: 2d2f ccd1 edda 843f 6772 cd8d a356 243f
000007c0: daab 0390 93a3 733f bd6c 1757 bda2 613f
000007d0: aa09 1941 476e 6fbf e7ae 8af9 739a 743f
000007e0: 2f8e 4e8f 240b 5dbf 3b29 4aad 4b9b 663f
000007f0: 490d 8c44 42bf 4a3f 2e75 18a7 0c1c 88bf
