save_param/last_w_2_default_indicatrice.npy (npy, 29808 bytes, 1 tensors)

array f8 [3710]
0	0x3f46069128fb9789	0.0006721695699212087
1	0x3f46fbe6e8e4e614	0.0007014157761552919
2	0x3f87e55befec906c	0.011667936572458092
3	0x3f80644448c216c0	0.008003743620302983
4	0x3f80f68752d7dee0	0.008282716003108204
5	0x3f97b731d6aaf78c	0.0231597697518207
6	0xbf5156a62fc158c2	-0.0010582564273327465
7	0x3f50abe96183c6e4	0.0010175494299428595
8	0x3f68dea3b842bf92	0.003035850300953721
9	0x3f39a51395e9909b	0.00039130905307716853
10	0x3f944871519e04a3	0.019807596785089598
11	0x3f83181fcc508833	0.00932335703152285
12	0xbf99d764e65ec510	-0.025235725937538922
13	0xbf10dc8cae241fdc	-6.432160038027885e-05
14	0xbf92a09c1e553cd0	-0.018190802909256842
15	0x3f74b4194406350d	0.005054567999093662
16	0x3f758e22ccf39a4a	0.005262504520237752
17	0xbf7f8403c6a7baa5	-0.00769425845145003
18	0x3f88dea646366b09	0.012143420236318219
19	0x3f8c71252076f4eb	0.013887682011836286
20	0xbf6ca52b9c640795	-0.003496728112737333
21	0x3f784b3988b76665	0.005931114904763034
22	0x3f81ef122a603b69	0.008756772916994131
23	0x3f6b7220014bc0ad	0.0033503174876089088
24	0x3f72259cd590e121	0.004430401452786976
25	0x3f7f6794f56b2ece	0.007667142743865886
26	0x3f83167d37619c8f	0.009320238354304315
27	0x3f3dedc92eb821c8	0.0004566780250745664
28	0x3f2c27ba6831802d	0.0002148070380796353
29	0xbf6bd53ec2970a28	-0.003397581652025101
30	0xbfa21aba07f917f1	-0.03536015841795848
31	0xbf65895810064dd2	-0.0026289672825414523
32	0x3f74d0d7b43b7d99	0.00508198031795306
33	0x3f357c877512df7c	0.00032785708487947213
34	0x3f86c8d19e8223d3	0.011125219011107667
35	0x3f56735686a6373d	0.001370272157689325
36	0x3f4fa7357df82f6e	0.0009659777824153456
37	0x3f7284047d40642e	0.0045204329835764456
38	0x3f9753f0f82ff231	0.022781148098134977
39	0xbf54500005bf9e0d	-0.0012397766322410659
40	0xbf606606865c86fe	-0.002001774543615719
41	0xbf73b06317aee693	-0.004806887703063051
42	0xbf478a9a105469ea	-0.0007184269203748793
43	0xbf803984e7aab481	-0.007922209091100864
44	0xbf865b3447c6df33	-0.010916145744758054
45	0xbf5ba5019e15a18d	-0.0016872897907323798
46	0x3f76baae64d332c6	0.005549126840560253
47	0xbf6abdbf1442647f	-0.003264306260530036
48	0xbf7558da5881df64	-0.0052116898660797585
49	0x3f6be82b91beeec4	0.003406605812385029
50	0xbf83fc1a56afd40b	-0.009758191843483052
51	0xbf7f1ba93774980d	-0.007594738962586345
52	0x3f72614bdacdcb7d	0.004487320239479395
53	0x3f64bba766827ebc	0.002530886606180475
54	0xbf41478970b0367a	-0.0005273266882583471
55	0x3f2063fa2b479b1a	0.00012504986592817223
56	0xbfa2780aa9146ce0	-0.036072095050451614
57	0x3f65da3295d9e47d	0.0026675212855563056
58	0x3f610dbcf1e32ca7	0.0020817461328071665
59	0x3f5baa0630f57aff	0.0016884861432441831
60	0x3f7c00f8efdfed8e	0.006836864862630588
61	0xbf806f753e2b1f1e	-0.008025089225511869
62	0x3f76d90cb0ae71a8	0.00557808835119681
63	0xbf578615158fbfbe	-0.0014357763195640273
64	0x3f90b391d6518eb9	0.01631000395390345
65	0x3f8992cb617ea77b	0.012487019455722273
66	0xbf161927c03c085a	-8.429818268143718e-05
67	0xbf4807e82949a414	-0.0007333644485473267
68	0xbf57714262ae14ab	-0.0014308117194741603
69	0x3f4ee33e1e40ebb5	0.0009426167785088121
70	0x3f51fa8aeca00170	0.0010973316843775026
71	0xbf666a11b2e5d5b4	-0.0027361245803898208
72	0xbf6a2aa68d28e933	-0.003194165511812086
73	0xbf7311724fcc8c36	-0.0046553101827014245
74	0x3f70e0871e1f0a98	0.0041203763993872475
75	0xbf6106571dcca0ee	-0.002078218602395868
76	0xbf7b800f093fcb04	-0.006713923201447928
77	0xbf805a46bbd2b5fb	-0.007984688383966257
78	0x3f5070c02db45fd2	0.0010034443610660204
79	0xbf48ada3c3125bdc	-0.0007531213397154973
80	0x3f7a21a684ff6eef	0.006379747836003465
81	0x3fc02d53b807c4cf	0.12638327108246591
82	0x3f95ad667f7744ad	0.021169282464886297
83	0x3f58203215f557ef	0.0014725197905440764
84	0x3f6ddafbfb455924	0.003644458915157094
85	0xbf6d33909f975855	-0.0035646271396485942
86	0x3f75690ba39f5a1e	0.005227132287436235
87	0xbf7b6eaf77e83942	-0.0066973547204852175
88	0xbf5f32ace60197e1	-0.0019041717969456794
89	0x3f7ae8e692e8d66b	0.006569767645989803
90	0x3f8a54fbc833b538	0.012857405707530675
91	0xbf81c3bb06907c26	-0.008674107683019083
92	0x3f89990a2dce2771	0.012498931429735656
93	0x3f697c1c78494df2	0.003110938649379718
94	0x3f673e5bc3d5ec69	0.0028373520169089794
95	0x3f3b5a195659358c	0.0004173576220168555
96	0xbf6048a94ea5cd24	-0.001987772634657896
97	0xbf633ddb28f8e4f4	-0.0023488312215503796
98	0x3f46e1ec2db285bf	0.0006983187880857318
99	0xbf865187a375164b	-0.010897693324874022
100	0xbf84a13195a1c1c7	-0.010073077563192435
101	0xbf811aab7ff5e449	-0.008351650087876321
102	0x3f640bc3b27d5c26	0.002447015973227734
103	0xbf839d178b2a01af	-0.00957697289891332
104	0xbf975e3c81d8b587	-0.02282042067070258
105	0xbfbe8fa1960edfa8	-0.1193791381218704
106	0xbf663c73860e56d2	-0.0027143722840702123
107	0xbf519b8c081109b2	-0.0010746829505171415
108	0xbf4c383664ef95d1	-0.0008611932370256541
109	0xbf6ce37baeb46959	-0.0035264411614096933
110	0x3f44d6fa0fa1e81b	0.0006359787942209512
111	0xbf43131414cb7e2a	-0.0005821083119279026
112	0x3f6d93a707bcef3c	0.003610445242797326
113	0x3f6f808544faa8f5	0.003845463077444151
114	0xbf624cb479aa50fb	-0.0022338414103818516
115	0xbf82317c85fff5f5	-0.008883450354910652
116	0xbf60761087c7ef7f	-0.002009422574927144
117	0xbf3b1cc54d45eeec	-0.00041370217265755574
118	0xbf70c27586209f56	-0.004091700628158742
119	0xbf6e4f021e5e3bf4	-0.0036997834567453706
120	0xbf21f74d0b3c893f	-0.00013706984975054602
121	0x3f68cfacbd4911b8	0.0030287145439464556
122	0x3f78e6526474441c	0.006079027028378394
123	0xbf0bcc0e122fc75e	-5.3018741048917474e-05
124	0x3f6d3afd97010a61	0.0035681679655977104
125	0x3f784871237c1a6b	0.005928461024956459
126	0xbf6afd16bc69b27a	-0.0032945102751027995
127	0xbf85d551889aa4d6	-0.01066077898151933
128	0xbfa2de99ae4135f6	-0.03685455562718325
129	0x3f73bfe80d5476cb	0.004821688130758959
130	0xbf721dff85872593	-0.004423139697288819
131	0xbf585c1d50cbd517	-0.0014868055615669445
132	0xbfac7141306d9ed3	-0.05555156437077149
133	0x3f6f0364a104f325	0.0037857976350593897
134	0xbf79a301dbc67630	-0.006258971462015192
135	0xbf7aafecd7532cea	-0.0065154315572712816
136	0xbfaba1d1e357699a	-0.05396896267093894
137	0x3f69f720f6cf949b	0.0031695979910063127
138	0xbf79b868e9b8c2ac	-0.006279382530508453
139	0x3f7afdf5fb888766	0.006589852208465396
140	0x3f86bc90e27bfcad	0.011101848518136082
141	0xbf9853b63adece3f	-0.023756835311088628
142	0x3f5ada124f618108	0.001638906365336425
143	0x3f85a40f4ac35739	0.010566825360381326
144	0xbf72ad869704dde2	-0.004560018293254116
145	0xbf4124221e1c357e	-0.0005231062498027154
146	0x3f6f03c7bcecc796	0.0037859822399690197
147	0xbf7f1595502395ad	-0.007588942770074975
148	0x3f8506ba2da340db	0.01026673747802003
149	0xbf69858db0307434	-0.0031154410694527405
150	0xbfa492bd46e50d31	-0.04018203249372688
151	0x3f7d5f54c31652ed	0.0071709929483361025
152	0xbf837a6aa74f9dfd	-0.009510834914137506
153	0xbf35b5395be719b6	-0.0003312363659485855
154	0xbfaf1c344d2cd486	-0.06076205675200534
155	0xbf8bd3cea7c8bb72	-0.0135875840142867
156	0xbf93263b6e745992	-0.018700531593901788
157	0x3f7c2a6ba69475f2	0.006876392851407941
158	0xbfae0cda200d83e4	-0.058691803372091816
159	0x3f5e4e4e7961315c	0.0018497244214073704
160	0xbf6bae8cb4ef9c57	-0.0033791301898307524
161	0x3f6b2e93c82e84c5	0.0033181082121279426
162	0x3f6aec862bf71e73	0.0032866116086756546
163	0xbf9f46144e83d09c	-0.030540768901986412
164	0xbf821b2fa8662a0e	-0.008840915991432243
165	0xbf72a2a08a276ab2	-0.004549624546110452
166	0x3f4587987b219eaf	0.0006570333992046063
167	0x3f39e4028f13e2dd	0.00039506018136096864
168	0xbf41b440e9fbcc32	-0.0005402867281801892
169	0xbf570aa064a57bfa	-0.001406342157302508
170	0xbf3b60322903a9a8	-0.00041772102942041556
171	0x3fc0e8d3d3bdd82f	0.1321053298849519
172	0xbf949bac5b1fbaad	-0.020125096380008745
173	0xbf846d1f2c775cee	-0.00997375826311361
174	0xbf7c018aa19e2f8c	-0.0068374076162277635
175	0x3f985181a5285423	0.023748422341743358
176	0xbf87f86da7967161	-0.011704308201665627
177	0xbf72e9a38ebf23f9	-0.0046173466652783485
178	0xbf61ea83abcdb0b2	-0.0021870204640689
179	0x3f8b057ad66e421e	0.013194045704751519
180	0xbf6172976998e520	-0.0021298367762737774
181	0x3f8a973f8aed2531	0.012983795573421194
182	0xbf83acc56a3a9414	-0.009606878570886969
183	0xbf6eb2b38e348a6d	-0.003747320837321147
184	0x3f73d175f9ba1571	0.004838429300098355
185	0x3f7018f6571aa161	0.003930055872537559
186	0xbf940f1c5b89ffad	-0.019588893019772225
187	0xbf6f4b28f7501407	-0.0038200187796086946
188	0xbf6b6b8059550ae0	-0.0033471590819841163
189	0x3f52b76dc5387161	0.0011423656441201457
190	0x3f8e7dbf53a9b692	0.014888281574907656
191	0xbfbdff416a0b9b28	-0.1171761402034518
192	0x3f803dc5d267d0fc	0.007930322154586104
193	0x3f2d99ccac79effd	0.00022583602389036886
194	0x3f9cac6e67c9ffb9	0.028001523098737133
195	0x3f806f03547ab8f7	0.008024240508657672
196	0xbf5b99e53bed0249	-0.001684640752230975
197	0x3f8ebe50cd48dcee	0.015011435761250937
198	0xbf7d34a83363269c	-0.007130295786007015
199	0x3f575827a3f25cbc	0.0014248263467260677
200	0xbf8f3983503b47ae	-0.015246415983174302
201	0x3f7644d4e45f48ef	0.00543673668831189
202	0x3f6d35374a13593d	0.0035654144163387567
203	0x3f881342addcf69c	0.011755486422426124
204	0x3f5c509da6dce1e9	0.0017282046860157502
205	0xbf63a6729343695b	-0.0023987043187904517
206	0x3f8453ffe9c06f15	0.009925841637645353
207	0xbf7bd241bcc6ca90	-0.00679231337237475
208	0x3f52db9af81940bd	0.0011509908075773422
209	0x3f52101024fb3fcc	0.0011024625454645219
210	0x3f9111f2812ff61e	0.016670025954217953
211	0xbf6c838399cf3b09	-0.0034806795433505217
212	0x3f7d9c44d26f8f87	0.007229107700343357
213	0x3f80694afbbd8f31	0.008013330276021332
214	0x3f63b770bf9b4bbd	0.0024068071478295637
215	0xbf79f22c4a17ac62	-0.006334469800530847
216	0xbf7588a5d77971fc	-0.005257270640495634
217	0x3f72dcfc55e50d39	0.004605279622697461
218	0x3f50c544e1e7d415	0.0010235951118577936
219	0x3f7c2a4ea4562e2f	0.006876284785345229
220	0x3f5730797cc93c78	0.001415365829547514
221	0x3f44bea92c5a2e38	0.0006330801049485085
222	0xbf5742ef1ef30f00	-0.0014197669186594708
223	0xbf79d8bb510c66f6	-0.006310207086039679
224	0x3f709eab2c36863c	0.004057568210016845
225	0x3f7bc46a01d78cad	0.0067791119485917485
226	0xbf648ae0c8d57f39	-0.0025076284716049305
227	0x3f62d966f9644831	0.0023009310926989314
228	0x3f937af074fcd2d9	0.019023663654666876
229	0x3f81eb69509bb7fd	0.008749792835683218
230	0xbf76208ce86de366	-0.005402136251057543
231	0xbf610e59d22b6413	-0.0020820383373174683
232	0xbf7b9afa43adb714	-0.006739595027154061
233	0xbf7087b0027dca5c	-0.004035651720061564
234	0xbf550c1ba319490c	-0.0012846250432586052
235	0xbf7e7cd6b87596a2	-0.007443274261594775
236	0xbf4d66c0e252eadd	-0.0008972589318071118
237	0xbf60f43f6900436e	-0.0020695913772289997
238	0xbf79b6cde10677d8	-0.00627785130964572
239	0xbf6ac570ca11c244	-0.0032679751316709044
240	0xbf7d7741b98628cb	-0.007193810212252137
241	0x3f4bf2089e7772c2	0.0008528272709856443
242	0x3f7a974e7aae0999	0.006491953429647168
243	0xbf547815a677509c	-0.0012493335178663028
244	0x3f77e429711a542c	0.0058328265019059015
245	0xbf4a15283431dd5d	-0.0007959791477238177
246	0x3f8330d1c0a318fc	0.009370459262197255
247	0x3f62b975ffc4fd0f	0.00228570028971798
248	0x3f6ccb87761e8af4	0.003515019009641457
249	0x3f6c079100479fe9	0.0034215766956897553
250	0xbf7341d96cb3fd3a	-0.004701470675399217
251	0x3f7f435cbbaf952f	0.007632601012095549
252	0xbf7371ee0008fbf7	-0.004747323692355635
253	0x3f7931e05719b2b2	0.00615108139900815
254	0x3f3d9ee61a430b78	0.00045197599162010533
255	0xbf83df9ea4f826c3	-0.009703864488091246
