save_param/last_w_1_M3_for_0_1_2.npy (npy, 24584 bytes, 1 tensors)

array f8 [3057]
00000000: 8167 a089 f786 473f e4af 2fb0 a8a6 87bf
00000010: 686e 7e0c 70ed 8d3f d8dd f79f b777 7bbf
00000020: 45e1 7576 a9ce 813f 0791 a144 e239 943f
00000030: 1486 ecee 83b3 8dbf 6e77 787c 63c8 92bf
00000040: 8bf9 0deb bc29 423f 70d5 68d5 4db6 71bf
00000050: 7343 e24b 3e26 6f3f ddfd 1a7d b264 80bf
00000060: 37e6 cade 4f96 783f 8f1a 430d 5460 303f
00000070: 8246 4030 2cf5 63bf 8d26 4a11 f469 923f
00000080: 5793 f54c 9402 74bf adb6 ef84 59b3 74bf
00000090: 8cff aa33 a291 b53f e36e f854 e8c8 a63f
000000a0: 703c f781 f8a8 963f deaf 8b3a 2fd1 8a3f
000000b0: 09e7 5f34 77bd 3cbf 36ff 5804 142e 77bf
000000c0: 1536 9375 ed28 7ebf 6f58 9e77 a23e 8ebf
000000d0: f7f6 62c3 94d5 573f 4d44 581d 1527 693f
000000e0: dc08 40e8 1475 803f f977 82b2 3328 913f
000000f0: a96c 7a6a dfda 7a3f 77bd 08d4 4295 663f
00000100: 85e5 104b 4118 77bf 8196 7d69 6554 9a3f
00000110: f341 ff7d d5c9 6c3f 0678 7f40 83ef 82bf
00000120: ba42 0e13 5e4a 6cbf f8d9 a401 e1ba 623f
00000130: 4949 2406 d538 81bf 927e 19c3 ac44 763f
00000140: 8684 67bb d279 69bf 7591 060a 102f 653f
00000150: ae2b f228 21f9 7e3f b2c4 87b2 aaa1 6cbf
00000160: cb39 7aec f270 773f 4ea2 6558 5c28 5cbf
00000170: a759 97f4 dd15 84bf 5491 5cf8 f77c 833f
00000180: 32ee f5e8 8466 593f 9755 c0b4 1b7b 77bf
00000190: d39f 585c 011c 813f 7097 6a61 c026 43bf
000001a0: eb7f 8d37 a286 56bf 4d4f c101 dcc6 713f
000001b0: 0d28 f3b4 ae89 913f 45eb 871e d7ab 733f
000001c0: 813d 3c75 faa8 573f aec1 1232 8fa0 67bf
000001d0: 5a00 e7f1 1f5b 78bf c9df f8fd 6bc6 503f
000001e0: 8750 9afb 1568 35bf bc8f aa85 ca57 543f
000001f0: cec1 3a8c c314 73bf d817 1a86 280c 4f3f
00000200: deff 1699 df51 6a3f f805 aba2 c15d 79bf
00000210: a1ce 0cef 69bb af3f b896 adaf acbc 3abf
00000220: 2dad d7a6 7519 6b3f 1c5a ad6a d607 86bf
00000230: c03c 89cf 5e02 5c3f b9b9 9ea1 1927 713f
00000240: 995c 76e6 f562 7b3f 8afb f670 0206 4dbf
00000250: 2592 25aa 15bc 903f 060e c150 dbec 98bf
00000260: 5eef e649 b9ad 843f 11be 3cb2 367a 84bf
00000270: 9a3d 9267 efab 82bf 4f4b 41e9 71ea 63bf
00000280: ffeb 5f7e 7a49 7f3f 6c64 0089 1d3a 66bf
00000290: b098 15ad cf0f 83bf e48c 9d57 5b77 6cbf
000002a0: 5f3b b5f7 1367 76bf 7dca 6d30 d8bb b0bf
000002b0: 0177 8d12 2e6a 48bf 397d 2b7c cd8a 743f
000002c0: e7a6 7619 c5d5 5dbf 46d1 5a99 0a47 78bf
000002d0: adf9 8ebb ef09 8abf ac80 0dc7 0563 663f
000002e0: a98a 9d9c 41e6 6f3f 523c 57e1 e188 a9bf
000002f0: b60f f53c 8a73 8abf 556c 8907 d25a 7a3f
00000300: 2c64 40a2 4c67 723f 2bfe c3ce f611 853f
00000310: f9ec 845b 8f8a a23f 8a33 3310 07df 6cbf
00000320: 29be 6c1e 2cf6 78bf 53ab 8291 41bb 75bf
00000330: d065 747d 6d0d 943f dcdf 19a7 eed5 8fbf
00000340: 7f5e 67b0 ea73 7bbf 419f 8f74 8de1 4e3f
00000350: 991a 151e 0c35 80bf de10 180a 22b1 a4bf
00000360: d502 8bef 1951 6b3f 1fca db25 3851 823f
00000370: e434 79ce 34d4 8ebf dc79 54ce 3d5f 91bf
00000380: 9b2e a2b5 57ec 62bf db09 d642 1fed 813f
00000390: be61 96af e8de 6cbf aedc 01bf 1b82 803f
000003a0: b833 650a 6bbb 64bf af93 dfdd bf22 793f
000003b0: c1b9 5314 f054 663f 6317 be31 6461 573f
000003c0: c8e6 8719 35f4 92bf 8925 d5a9 b10c 7dbf
000003d0: 08fc 3ae6 165d 7b3f 97a0 7c73 c348 62bf
000003e0: 2683 6520 0741 a8bf 21b3 0f33 d4ac 89bf
000003f0: 7130 8de4 8d88 74bf f471 29bc f90f 80bf
00000400: 5c76 f5f3 551f 63bf fb12 8c89 d9fc 7b3f
00000410: 4372 b03d 6769 58bf 3fb0 3a51 ae64 83bf
00000420: 851d bf72 8552 793f 82f1 0926 ac9d 73bf
00000430: 16cc 6670 e6fd 26bf 8cd6 aa12 178a 803f
00000440: 47eb c486 7bc4 ab3f 68dd 0d71 7fa4 733f
00000450: c239 745a 8bc1 6fbf c02c 3d01 9bf4 6f3f
00000460: 5553 5050 39e5 863f 05ac d831 dd55 873f
00000470: 2a20 1ed5 548b 633f b658 f0a0 d699 753f
00000480: 9a8f b637 ca61 9fbf dbc9 7630 67e5 923f
00000490: dae4 e2ee b95b 4cbf b46b f382 1122 813f
000004a0: 5d83 1982 c152 62bf 9864 435e f71c 7f3f
000004b0: a8a3 045c 9eb9 7dbf c825 2032 074d b0bf
000004c0: b8cf 3158 8b48 803f 185a 49c3 30c3 8abf
000004d0: fc8f 64ca 8cfb a1bf 3c57 784d 1693 84bf
000004e0: af84 3a4b c124 963f 6a23 a878 ccd7 783f
000004f0: 8869 0874 3350 5dbf 3ece a48b 8bf3 913f
00000500: b911 8c40 9799 603f ea7b eb9e 8e3f 813f
00000510: c093 ffec e794 523f 939c 2aa3 cde8 7b3f
00000520: 7633 0149 450e 74bf 7407 dc10 9d58 933f
00000530: 94b5 2101 0822 893f d9bb 0425 0546 66bf
00000540: 00de a4a1 d360 79bf ef1d 41b8 d998 693f
00000550: f3f2 0944 fecf 6a3f 5a8b 49fa 196d 5cbf
00000560: e7e6 4f56 5557 473f 1fc1 0717 8cc1 803f
00000570: aa8e 6931 cea9 7e3f 1b39 fb9a 8ef2 70bf
00000580: eb5e 47c9 3c46 663f 4dc2 9d1c bbf8 58bf
00000590: fa25 6fea 7533 943f d9ac fbc2 7669 653f
000005a0: 3d7f 1249 d01d 673f df5a 6a35 54cf 5bbf
000005b0: 15f4 44b8 ec7b 90bf f69d 4ddb b12b 3b3f
000005c0: dae1 6f75 73e8 703f f21b 8504 77d6 4c3f
000005d0: 2435 c1b8 8882 803f f7fd ed60 9b0c 513f
000005e0: 48b6 f974 dea8 653f b5f3 7ce0 f642 71bf
000005f0: 8b0f e9f6 ea36 803f 8c17 b378 b4f5 91bf
00000600: 8073 3091 c6b4 793f 2335 6103 8874 7bbf
00000610: 18c8 3ffe 71e3 88bf d79a 8c0f 7a19 6cbf
00000620: ce3c 22c1 9ea6 5d3f c635 4df2 8997 77bf
00000630: 0d20 ffdf 11fa 84bf 49f6 1882 de87 823f
00000640: a16e 90c3 80df 433f deb6 f9da 2d42 aabf
00000650: c61d 2d03 380c 90bf 8395 db36 08bb 7f3f
00000660: 4ba7 4af0 8d73 66bf 8abc a3ba dabe 823f
00000670: ac31 c85a 9f4c a13f 3f76 9438 1f8a 9a3f
00000680: 23f6 2381 8fc9 823f 91c6 5e63 eaba 74bf
00000690: 4230 dab7 487e a0bf 6caf 79fa 6d07 8b3f
000006a0: 7f0d 4705 f4f6 6dbf 0861 f7ad 3227 393f
000006b0: 0971 2deb 3f36 79bf f15e 3aab 8094 883f
000006c0: 6cbc a6e0 d9cf a23f 8529 ea17 3494 883f
000006d0: 9839 3699 7b12 9bbf 5c44 34b6 e76f 7e3f
000006e0: 4f0f 9565 f9eb 74bf 76d0 e32e 0024 823f
000006f0: e800 6264 9272 7abf 56ee 0e29 66e1 84bf
00000700: 1123 f0c5 82b3 90bf 8993 55fa 9598 b13f
00000710: 9b76 0ac9 d234 34bf e688 9446 3f61 7f3f
00000720: a5fe 27ea 921c 913f 0544 8431 7060 a3bf
00000730: c70b 46c0 dc75 b6bf 0bb8 39df 7013 88bf
00000740: ad57 244c fd03 90bf 48bf b5ab 25ad 7cbf
00000750: 9b57 a909 d738 68bf d209 1384 ba6e 9ebf
00000760: e191 849d a12e aebf 813e 72b0 6428 883f
00000770: 8442 bd41 b929 95bf 442b bd53 4d2d 7c3f
00000780: 9252 87ed 3d48 82bf 5192 bbcf acb6 943f
00000790: ba7c 433a 48fa 79bf 9644 c2e2 3c36 8c3f
000007a0: a22b ea32 649a 52bf 5fc4 c2c7 a132 80bf
000007b0: bde7 0b92 749c 80bf 464c eb66 0c29 8e3f
000007c0: 4043 8de2 2c86 933f 1350 845a 9150 84bf
000007d0: 617b 0ccd ff24 99bf 96de eb67 f480 983f
000007e0: f51d 80c1 9899 603f 537b 055b 6c15 21bf
000007f0: d8b1 a5ba 5809 653f ca93 ad11 7e06 613f
0.0007179936103540592 -0.011548345448282711 0.014613032704622955 -0.006705968174621067 0.008694957664133649 0.01975205940142735 -0.01450255463493292 -0.01834254691322406
0.0005542919590054025 -0.004324249303455971 0.003802415535638587 -0.008004564707674905 0.006002723687453185 0.00024988224073433594 -0.0024362433487191146 0.01798230510261205
-0.004885272311501896 -0.005053853687952231 0.08425344239640092 0.044501552936905296 0.02212894719360431 0.013094300245448606 -0.0004385391260935822 -0.005659177962627207
-0.007363250327399058 -0.014767903590648694 0.0014547302976519164 0.00307039379072952 0.008035815561019559 0.016754920740474664 0.006556389540175158 0.0027567200889035376
-0.00563836579481725 0.02571257072795286 0.003514210678965174 -0.009245896726437063 -0.0034534299269995657 0.0022863764435456756 -0.008409179925852899 0.00543658719251962
-0.0031098476276701396 0.00258591778420419 0.007561807185207421 -0.003495057481125296 0.005722950859889451 -0.0017186071214273682 -0.00980733301814214 0.009515702502149871
0.0015503213834041738 -0.0057326395290337095 0.008354197149927167 -0.0005844535215444435 -0.0013748726034563629 0.0043400377290544025 0.017126779360104694 0.004802551564803197
0.0014440961721823022 -0.0028841778553998143 -0.005946278366934699 0.001023869954122946 -0.00032663857164406295 0.0012416341548169138 -0.004658473833544409 0.0009474943037310847
0.003212868418557931 -0.006192928684585201 0.06197672885028039 -0.0004079743954917658 0.003308038509876396 -0.010757136469391297 0.0017095495114920894 0.004187679407478156
0.006686173007799522 -0.0008857261581666092 0.016342485914167555 -0.0243410366094974 0.01009697682172089 -0.009998729051942797 -0.009117002819293774 -0.0024311280085752905
0.007638433924507914 -0.002713258443702451 -0.00930750128709365 -0.0034748825100209147 -0.005469396589730418 -0.06536627943368419 -0.0007450795138585765 0.0050151850470848075
-0.001820986251781448 -0.005927125360973234 -0.012714264785128682 0.0027327645151871884 0.0038939744453484093 -0.04987245441190481 -0.012915687546985893 0.006434269359114249
0.004493045187723015 0.010288170037255536 0.036213378831655825 -0.0035243165926658925 -0.00609414323734784 -0.005305534483492763 0.019582472593446643 -0.015544762110252401
-0.0067023437063294935 0.0009424153041637033 -0.007913679760020375 -0.04041391728608955 0.0033345705563479857 0.008943976073600144 -0.01505318884951596 -0.01696487972105297
-0.00230996256602174 0.008753055789161237 -0.003524260010362406 0.008060662046985047 -0.002530774177250863 0.006136655310886959 0.002726048379023655 0.0014270285091426353
-0.018509702380447718 -0.007092184064569359 0.00668057389310573 -0.0022319619564719717 -0.04737112303224071 -0.012536676224010503 -0.005013040798825683 -0.007842970900292713
-0.002334277989276141 0.006832933192303821 -0.00148997385145501 -0.009469377378387487 0.006182214052336992 -0.004789040046145112 -0.00017541349388991494 0.008075886017972843
0.05423341770298023 0.004795549219913077 -0.003876468824848462 0.0039008166731143434 0.011179397357446478 0.011394241412821424 0.002385774315317964 0.005273664849502582
-0.030646476412257685 0.018453228314408193 -0.0008654268147189296 0.008365761574557463 -0.0022367267090860747 0.007595983774273972 -0.007257097808442227 -0.06367535566109617
0.007950867299065453 -0.013067608794853178 -0.03512229891410354 -0.010046171416472675 0.021624584404553 0.006065176693035615 -0.001789140937154517 0.01753061332529015
0.0020263628142649062 0.008422006821488599 0.0011341347599167356 0.006813815375301807 -0.004896422047818363 0.018892721323033837 0.012271940741096533 -0.0027189350586449387
-0.006195856747857942 0.0031246425951711935 0.0032730070236638375 -0.0017349961937262654 0.0007123152432761654 0.008181662037686053 0.007486157838318222 -0.004137570431068017
0.0027190386992791324 -0.0015241458190439372 0.019727556642271417 0.0026137656749277535 0.0028218334269495536 -0.0016973802900445629 -0.01609773516360143 0.0004145917148918593
0.0041279325587244235 0.0008800583973788119 0.00806147397829677 0.00104060338682632 0.0026439995634095804 -0.004214252818027943 0.007917247448069783 -0.01753885256473313
0.006275916722214059 -0.006702929784365072 -0.012152567454879956 -0.0034301170347988785 0.0018097448669641028 -0.005759753087500602 -0.010242595337231842 0.00904821238065802
0.0006064776163187854 -0.05128615663566703 -0.015671611017095598 0.007746727072775686 -0.002740647529511008 0.009153088398731652 0.03378770812205131 0.025917518452038598
0.009173508766703148 -0.005061069086808382 -0.032213470881373954 0.013197764593506377 -0.003657795527233609 0.0003838061074623732 -0.006155252153657872 0.012001996255363663
0.036742027924781734 0.012001425723856549 -0.026437693811709545 0.007430939792599647 -0.005107855039856292 0.008857728415456938 -0.006456920475216267 -0.010195539596558206
-0.016309779483012102 0.06873452531506365 -0.0003083243000590958 0.007661101504057499 0.0167105632226582 -0.03784514049960567 -0.08773593610935314 -0.011755830585766366
-0.015640218517624472 -0.00700106349118796 -0.0029567909198630732 -0.029719271002940868 -0.05894951865983323 0.01179579413863441 -0.02066697562924215 0.00687914091015324
-0.008926852999971122 0.020228099993703733 -0.006342203272850339 0.013775325460559078 -0.0011354425911658046 -0.007909072788921443 -0.008110914904580708 0.014726731196253461
0.019066525771737064 -0.009919295859198518 -0.024555203333075485 0.023929423182350883 0.0020263656151688855 -0.00013033817004789536 0.0025679333677344034 0.002078291157362665
