save_param/last_w_0_M1_for_0_1.npy (npy, 14656 bytes, 1 tensors)

array f8 [1816]
-0.006072030214963681 0.00489784555535357 -0.0013628101703857013 0.006391174198447023 0.0003415596965272397 -0.002112758520852552 -0.026968978762682658 0.005098623782902201
-0.007772871672185872 0.0067456052570447865 -0.0024739565091395793 0.00502118642741797 0.004135442301057616 1.7342192626752325e-05 -0.013490852213692582 -0.010235611636212942
0.01732208372916896 0.004246580593566326 -0.0032940360640707333 -0.002417354387582762 -0.021686344894094396 -0.0026186049034177686 0.0008010941261601261 0.002399130425418378
0.018439736150165458 -0.005244028387229786 0.003059079171989532 0.0016867222964127944 0.006123548162103265 0.011870105163720949 0.012993437622789232 0.001787840931014442
0.005975420760951989 0.004455846296379854 -0.005459203419712044 -0.005471296468103298 -0.006389916205196557 0.007242219004743709 -0.0040809702643571436 0.0013707699071716256
0.006360384009270432 -0.00038603610554398504 -0.012250477150463042 0.0003261110262135256 0.004470441533616326 0.0064344032734232545 0.0022954735497378253 0.0011183237859596837
-0.0049253429877696 -0.00035583316088925 -0.00794274189924263 0.039984055192695746 -0.010194177162112773 0.0027196872596921932 0.004480531690088559 0.0039801041681182155
-0.0031223417360576175 -0.002119743994087726 0.0005700490336408243 0.00145106607928009 -0.004038664747733609 -0.007286130099941678 0.015603655761690755 -0.004880177766547151
0.0032939000944614155 -0.036961607120871626 0.0019635900400778936 -0.007243891664918928 -0.00388435448593956 -0.0019728840712279518 -0.009565721091303894 0.0057934260661310286
0.013092853352674539 -0.026902579208815624 -0.018008054120143422 -0.005203591467695283 0.002426123884753925 -0.0016064710441823808 -0.01850705712024633 -0.0007470549384887453
-0.00035234044934248843 0.004881742158447844 0.019378591115810993 0.005199823390988517 -0.006791849854858948 -0.007226726383309149 -0.00045434104696550254 -0.0022217251719631056
0.007399151723699439 0.0001422873063070711 -0.009841815303826768 -0.014414686101401442 -0.0048780295782773955 0.0057407542099906774 0.0243850169682907 0.0009773317101860086
0.0018790445855590362 0.0070101339396351605 0.0001948773884801762 8.621270891110338e-05 0.00640399841593092 0.03358094048236379 0.0022868135327975903 -0.0059755307913721
-0.008609376342006592 -0.02239871029792485 -0.020051020858488415 0.007352415689600011 -0.003127332892522106 0.004967455200059544 -0.009053553066856134 -0.036563495303744954
-0.010308476284770508 -0.005553353026915337 -0.03240701242434092 0.01804631751560914 0.021616154018910583 -0.001507410457597049 0.00025710152448974876 -0.005417344361059778
0.0092195317141013 0.002330988295689914 0.0012701856260530558 0.003643186950302703 0.010820958739901161 0.004981169536172569 -0.0017107801614556848 -0.0012589747733313865
0.0023546736160996824 0.005216721266606027 -0.0009296223007700677 -0.0027397158880250842 -0.002696758685461074 0.0018505687571293635 -0.0012183974292233318 -0.002700103561179613
0.0044215977747324876 -0.00463157036659046 -0.00630012034831462 0.005945263667992426 0.010045312967331145 -0.028492561504645932 -0.002394513312577789 -0.004233392505231296
0.00022310466096160886 1.2631874729294335e-06 0.004629194021935772 0.003456462530897707 0.0008587311574325281 -0.017251182160511528 0.039032826342769666 -0.023237538705214087
-0.0015611714030922084 -0.006799861000740044 -0.007051436594320931 0.0018995349503402768 0.00332435183259838 -0.011075497282174981 0.010630526827292265 -0.0021119151467590123
-0.005241519604602981 0.0006706425602174901 -0.008567749884658218 0.0008067893483068102 -0.0032353780297046286 0.007247186870144045 0.01076841360266107 0.00748414305998972
-0.0022907547859242227 -0.008520629649842924 0.0030503611821945187 -0.00027036571688771895 0.0008789144636165676 -9.002522870844073e-05 -0.000856333854995312 -0.0033228243641504336
-0.005301835287215481 -0.006461692357519645 -0.0029475651285854275 -0.008657376807625919 -0.004766644167785731 0.0011476351658888646 0.00023149397875629732 1.1908743851885032e-05
-0.0019100928284355812 0.004057097505981605 0.0033656893531210414 0.0003706719420527863 -0.007956577400188599 -0.0005891542942686779 -0.006376189746037648 0.000646523060365262
0.005820372170161576 0.0022152763269895743 -0.008076845223200164 0.0037379701878343667 0.008497237354353069 -0.004841844927502921 -0.0013781948847008216 0.00013767496527752714
-0.00023670299321789932 -0.000951643069332146 0.0011187766634436812 0.0017092951182352252 -0.0022713981318162775 -0.0029678874274028984 -0.0007853391013743985 0.006055295507083073
0.007904967435252049 -0.005093944391120241 -0.001978242541113064 0.007991658156766519 -0.0012243555377873109 -0.011866749873113088 0.00421721397302167 0.0030637485942661244
-0.0034445044496026 0.0024364835702515315 0.0020470558340231833 0.0066477305951896035 -0.00291513927567927 -0.002475139676515775 0.0060393555261410445 -0.009023004876932765
-0.005493223059635029 -0.007754524386625525 -0.0008762305834133069 -0.0011631220412609404 0.003489453577572151 -0.002064477123069837 -0.0001954325235190364 0.003801917747699973
0.005429663005645208 -0.0011392442993266303 7.363475707472858e-05 0.011673712630210754 -0.004895513505260036 -0.005315875829324581 -0.0012145937437681238 0.012055063158726294
-0.008603925246725028 0.0034473463640870582 0.012398087057358386 0.007559756100384423 0.007606159433290392 -0.0067750876791119385 -0.005675369327405076 -0.0017605439114132396
-0.007512815819305571 4.27591401534991e-06 0.0066909877572644515 0.007049223270956283 -0.002071557203311564 -0.0008115054990508253 0.0019906168096690546 0.0007006306399416811
00000000: d4f4 1833 fcde 78bf 9498 b267 c30f 743f
00000010: 1197 3247 0a54 56bf f159 a5c2 a12d 7a3f
00000020: b44d e9b9 6b62 363f c986 0b98 c64e 61bf
00000030: 1c41 2b87 c19d 9bbf b34c 6f66 4be2 743f
00000040: fa76 0c5a 72d6 7fbf 5c1f 889f 47a1 7b3f
00000050: a527 8d49 4344 64bf 5dd5 e277 1891 743f
00000060: 4427 0057 53f0 703f 0fa1 1b67 422f f23e
00000070: 2c80 6c88 17a1 8bbf dc52 db89 68f6 84bf
00000080: 771f 765c e1bc 913f 16a0 4ecc dc64 713f
00000090: dc4b 5825 18fc 6abf 5248 3341 8fcd 63bf
000000a0: e511 5cf8 f134 96bf a27d 7bcd 9c73 65bf
000000b0: 7ffb 5389 1040 4a3f da8e e956 57a7 633f
000000c0: dbe9 d8be dde1 923f 5e58 c226 c37a 75bf
000000d0: ce79 fc9f 5a0f 693f ac08 6f46 a0a2 5b3f
000000e0: 8da9 7771 0115 793f 227b d38b 5a4f 883f
000000f0: af4f 38ad 4d9c 8a3f 72e9 1095 bf4a 5d3f
00000100: 4e55 f8cb ae79 783f 843c e721 4b40 723f
00000110: e6e2 65c2 635c 76bf 8607 5bf6 1169 76bf
00000120: e80b 0212 502c 7abf 4bdb 695c 04aa 7d3f
00000130: e84c 241d 35b7 70bf 4a33 fcfa 6c75 563f
00000140: 9403 f594 580d 7a3f 2d77 c972 9c4c 39bf
00000150: 11e8 c535 c716 89bf 4e8a 4431 3c5f 353f
00000160: 1310 f802 994f 723f 78dc 0efa f55a 7a3f
00000170: 330c 66fa f4cd 623f 60fe 9105 9752 523f
00000180: 0e67 ddb0 982c 74bf 462e f2c9 e351 37bf
00000190: 9120 95c5 4844 80bf 3d03 d442 ca78 a43f
000001a0: f4cf 2a4c afe0 84bf 1844 befa 9847 663f
000001b0: 88f0 3d91 2d5a 723f f4b0 c913 714d 703f
000001c0: def0 9574 0694 69bf a90c 2de4 6c5d 61bf
000001d0: d2fd 71fa eaad 423f 1fbf b556 36c6 573f
000001e0: 7127 2dd0 d88a 70bf 4cfe e5a7 0fd8 7dbf
000001f0: fd57 8e39 cff4 8f3f 87eb 7ebe 3cfd 73bf
00000200: 25f8 d225 cffb 6a3f 845f 95bb a1ec a2bf
00000210: 7006 2860 f215 603f 20d9 be5c c5ab 7dbf
00000220: a238 76ef 14d2 6fbf c836 1212 7029 60bf
00000230: 289b ff59 3197 83bf 38f2 c5f7 d8ba 773f
00000240: cd40 b007 6dd0 8a3f d307 8587 598c 9bbf
00000250: 69de 0a0e b470 92bf c5d4 ce72 5c50 75bf
00000260: e0c8 b657 f3df 633f 0ce5 3026 0752 5abf
00000270: 7780 4e94 83f3 92bf 9e59 ba43 c07a 48bf
00000280: 25e6 fcb4 4a17 37bf 8d48 b0ae e0fe 733f
00000290: e600 573c fbd7 933f 4660 8cf6 684c 753f
000002a0: 1e6b 1850 c5d1 7bbf 9e43 9397 c599 7dbf
000002b0: 554f 1df0 93c6 3dbf 6379 899e 4b33 62bf
000002c0: 8f2e beaa 924e 7e3f 7702 8aa7 5ea6 223f
000002d0: bdd9 e716 f227 84bf 1adb 196b 7285 8dbf
000002e0: 5638 1f18 fcfa 73bf 9f6b 61f9 9d83 773f
000002f0: 4e9a 90c9 62f8 983f 50cc e2ee 3903 503f
00000300: e5a0 bbc2 48c9 5e3f 2d56 2e80 a8b6 7c3f
00000310: 39c8 3f05 008b 293f 5ca9 a30f a399 163f
00000320: bd33 293c 143b 7a3f 8c06 4862 8531 a13f
00000330: 12ba bbaa cbbb 623f 51f4 3355 cc79 78bf
00000340: a07c 9fee caa1 81bf 8304 cf00 b0ef 96bf
00000350: 9ebf 5a3b 4188 94bf 9953 ef0e 911d 7e3f
00000360: 1b24 e80f 7e9e 69bf ccbf 0e1a c158 743f
00000370: 2690 ad52 ab8a 82bf 9533 1d51 73b8 a2bf
00000380: 0711 1e44 9c1c 85bf bad0 23da 1cbf 76bf
00000390: 9a16 0ce5 a697 a0bf bfcc 2bde bb7a 923f
000003a0: 3d5b 4e8a 8b22 963f d661 7da7 89b2 58bf
000003b0: b406 b2a3 72d9 303f 796e ca4d 7f30 76bf
000003c0: 8b6e 9299 b0e1 823f 2b44 eacf 6f18 633f
000003d0: 9cdf 516e 8bcf 543f 9da0 c019 51d8 6d3f
000003e0: 31a5 317f 4c29 863f 0c20 0f84 2267 743f
000003f0: a3b2 0536 8807 5cbf 59b0 96de 85a0 54bf
00000400: 569b 90c5 1b4a 633f a5fe b7f3 205e 753f
00000410: 0a7b 91b0 3c76 4ebf 98f5 75c4 9971 66bf
00000420: 480d 7f4b 8317 66bf 229d 9d12 d951 5e3f
00000430: 78bd 2b47 54f6 53bf 82ec b60f 871e 66bf
00000440: 72ab 6a9d 611c 723f 07dd 0eb4 8df8 72bf
00000450: 01c3 b5ad 27ce 79bf 0a6e 5290 0f5a 783f
00000460: 47d6 6115 a392 843f 97ec 5d6f 272d 9dbf
00000470: 0c66 c18b a89d 63bf b710 c7a5 0857 71bf
00000480: 526a e071 263e 2d3f 2c25 8650 5931 b53e
00000490: ac97 e5ce 0ff6 723f fd35 f630 ba50 6c3f
000004a0: 8c84 5d1e 8f23 4c3f 1175 c93c 4baa 91bf
000004b0: 58ac 3951 1cfc a33f 691c 1dd3 94cb 97bf
000004c0: 2dae a907 0794 59bf 0830 d9c9 2bda 7bbf
000004d0: 6db2 ff98 f7e1 7cbf d106 511f 3a1f 5f3f
000004e0: fb54 d8cc ab3b 6b3f 1839 e914 c0ae 86bf
000004f0: c1f0 7f28 75c5 853f fd9b 97cf 014d 61bf
00000500: 22a1 87b4 2178 75bf 4532 85ee c1f9 453f
00000510: 2e77 70ec f78b 81bf 4988 d0ee d66f 4a3f
00000520: e928 7d5a 1481 6abf 1239 86e9 39af 7d3f
00000530: e39d 0602 c00d 863f 305d e65a b1a7 7e3f
00000540: 053b 709c 0fc4 62bf 4ccd 7f8d 4373 81bf
00000550: 52a9 9730 12fd 683f 9c54 78e9 fbb7 31bf
00000560: e890 4870 decc 4c3f c051 08a7 7d99 17bf
00000570: 05ad 69f3 720f 4cbf ff1a 2ebf 7738 6bbf
00000580: 638b ad92 60b7 75bf 4144 a355 9377 7abf
00000590: 3337 90fa 7d25 68bf 082f 1072 f5ba 81bf
000005a0: 9137 ff4c 3086 73bf 79b9 55e0 87cd 523f
000005b0: f92b ce22 a657 2e3f a999 cb4a 75f9 e83e
000005c0: 29c6 bf8e 824b 5fbf 8690 add1 2c9e 703f
000005d0: 89a1 67b6 5c92 6b3f 069a 60de d74a 383f
000005e0: f174 c6bd 894b 80bf 2a21 8d36 2f4e 43bf
000005f0: bbca ea66 eb1d 7abf 6a9b 3fb3 6d2f 453f
00000600: 4739 f141 1ad7 773f db61 086c c525 623f
00000610: b73e b5d0 978a 80bf c1b9 b976 179f 6e3f
00000620: 92ab 58e4 ff66 813f e2d7 dad9 0ad5 73bf
00000630: 2d7a 447d 9194 56bf c043 5af2 9a0b 223f
00000640: 99b3 be3a 6f06 2fbf be8f 1cee f52e 4fbf
00000650: 14cf 954b 7d54 523f 7939 73a8 4d01 5c3f
00000660: a8b3 2796 779b 62bf 8c82 0b6e 1c50 68bf
00000670: c5a9 dae0 e6bb 49bf 9185 ba02 70cd 783f
00000680: 8400 e2c4 7a30 803f 257f 1449 63dd 74bf
00000690: 847a 90e0 ac34 60bf 0a9b 6433 ee5d 803f
000006a0: bf0f 95bf 510f 54bf 7e2d eb34 984d 88bf
000006b0: 0b82 82c1 1146 713f 994b 7f80 2519 693f
000006c0: 9274 c83e a637 6cbf 440e 0c28 adf5 633f
000006d0: d1e2 86bb fcc4 603f 58bb fb97 a63a 7b3f
000006e0: 8444 467b 7de1 67bf c05c d67e be46 64bf
000006f0: c13e 9427 b9bc 783f 4956 dd36 a77a 82bf
00000700: 5593 40d6 0f80 76bf 237a 2f4a 35c3 7fbf
00000710: 69b6 89d9 5ab6 4cbf bae4 38c8 7c0e 53bf
00000720: 2b01 e41f ea95 6c3f 77f8 42b7 85e9 60bf
00000730: 0f0d 1c98 a09d 29bf bf35 6e0c 3325 6f3f
00000740: 20cb 9910 6a3d 763f 7f2d 7f40 56aa 52bf
00000750: f0d0 727e 8b4d 133f b4db c12f 63e8 873f
00000760: 547c 6f66 510d 74bf 027e 628d 19c6 75bf
00000770: a202 131a 60e6 53bf c4bf 2430 53b0 883f
00000780: 3851 6a4c ef9e 81bf 051f 89fc 9b3d 6c3f
00000790: 19f5 8d13 2b64 893f 1f5f 7893 faf6 7e3f
000007a0: 31ef 39e0 a227 7f3f f72a 26c0 31c0 7bbf
000007b0: 717b 765a 0e3f 77bf 3fc8 73a1 41d8 5cbf
000007c0: bda7 ea23 c2c5 7ebf e4ca 784b 3aef d13e
000007d0: bcb4 8659 0268 7b3f 254a 9376 a5df 7c3f
000007e0: 419d 14ce 5ef8 60bf 3ef3 1aca 6697 4abf
000007f0: 00ae 1543 a04e 603f a82d b2d7 50f5 463f
